trained_models/model_nejc.pt (torch, 8564 bytes, 6 tensors)

fc1.weight f4 [20, 63]
-0.0130404085 0.09014121 -0.10205456 -0.0031730086 0.036585867 0.063523576 0.0034245998 -0.026648872
-0.06434803 0.106830746 0.05709301 0.052409187 -0.10754166 -0.048198573 -0.006907232 -0.07092233
0.094988 0.050054133 -0.100405164 0.06954831 -0.022409536 -0.024260364 -0.030236244 -0.044682227
0.090783894 0.015782893 0.11834042 0.0476079 -0.09030963 -0.027739778 -0.056235865 0.09601238
-0.02349794 0.032260492 -0.11808117 0.021246225 0.054160997 0.0047277063 -0.10789669 -0.0823131
-0.007701963 -0.11052067 -0.00070117414 0.08812049 -0.097197324 0.07548872 0.04404141 -0.038159296
-0.06671884 0.09272586 -0.013174646 -0.005870819 -0.0448789 0.062515825 -0.08106959 -0.10407938
-0.066664845 -0.046498157 -0.07619726 0.07200609 -0.06949416 0.08650562 0.027801186 -0.11914332
0.05659011 -0.09361024 0.10828006 0.35121238 -0.4653044 -0.29859516 0.52243954 0.12849134
-0.082026996 0.5609556 0.23582189 0.3144684 0.29976574 0.24349612 -0.18017508 0.1381758
-0.06155011 0.17039429 0.101530015 0.5498924 0.261641 -0.5349731 0.3817997 -0.064150415
-1.3724844 0.17985047 -0.14286977 0.16581988 -0.021436108 -0.19280002 -0.046903834 -0.17142123
0.028381767 0.0443343 -0.17232868 -0.016153187 0.474355 -0.36816406 -0.23543249 0.08793999
0.15519722 0.09672373 -0.28777742 -0.09125532 -0.11558692 -0.17203225 -0.2722908 -0.33719623
0.13724914 -0.2657495 -0.04318823 0.37298763 0.07733316 0.18205379 -0.36721718 0.06420055
0.18957207 -0.5276746 0.03157787 -0.22984634 0.09809588 -0.21171214 -0.10687156 0.027884379
0.061400637 -0.07412749 -0.08289437 0.058241665 -0.024259798 -0.11239409 -0.029714417 0.054561466
-0.048968494 0.06019664 0.07557258 0.07853292 -0.09787469 -0.096478865 0.04223705 -0.09788672
0.023874192 0.00077926274 0.014076127 -0.116006084 0.04871995 -0.060734924 0.0028071357 -0.028693283
0.039807554 0.09909171 0.057412542 0.005745415 0.06071877 -0.09548861 -0.08256464 0.08563585
0.09359863 -0.08830817 -0.12911884 0.032351777 -0.0232896 -0.04933449 -0.050705638 -0.032095894
0.011253269 -0.02244632 -0.057262532 -0.019451842 0.043211777 0.08698087 0.029493554 0.01808532
0.0045762127 -0.019797109 -0.0653753 0.041716825 0.09410583 -0.044867646 0.01899493 0.08062791
0.06562051 -0.084690295 -0.058463205 0.011855312 0.029829204 -0.1103851 -0.11840615 -0.059652507
0.003826092 0.63870925 -0.24310869 -0.318839 0.81208134 0.031493 -0.42416102 0.7102421
0.28736436 0.11870416 0.56539446 0.22561888 -0.6542983 0.26541793 -0.18382248 -0.061149325
0.095642656 0.43325496 0.5228179 -0.35918325 0.35920215 0.35786974 -1.202574 0.14063917
-0.96054965 0.16978812 -0.024282819 -0.273262 0.072082855 -0.14155625 -0.14160915 -0.09903875
-0.4083932 -0.23973873 0.28260708 -0.62619764 -0.6096329 0.041479856 0.031141574 -0.1387386
-0.18638249 0.05761145 -0.14087781 -0.43927464 -0.3079216 -0.7506063 -0.11214472 -0.41672555
-0.43141702 0.32074225 0.31674796 0.05520299 -0.34170288 -0.040055312 -0.058000885 -0.68384284
-0.053371657 -0.42512745 -0.27801675 0.011878569 -0.06622581 -0.09401518 -0.030207328 0.026492462
00000000: 70a7 55bc f49b b83d fb01 d1bd 40f2 4fbb
00000010: 10db 153d a618 823d 406f 603b bc4e dabc
00000020: e6c8 83bd 14ca da3d 5cda 693d 04ab 563d
00000030: cd3e dcbd de6b 45bd 1056 e2bb ba3f 91bd
00000040: 1289 c23d 9005 4d3d 39a1 cdbd 586f 8e3d
00000050: 3494 b7bc acbd c6bc 00b2 f7bc b604 37bd
00000060: e8ec b93d 204b 813c 765c f23d 8000 433d
00000070: 41f4 b8bd 883e e3bc 9457 66bd 24a2 c43d
00000080: c07e c0bc 9423 043d 8ad4 f1bd 900c ae3c
00000090: ecd7 5d3d e0ea 9a3b f1f8 dcbd c593 a8bd
000000a0: c060 fcbb a958 e2bd 00cf 37ba 8478 b43d
000000b0: 640f c7bd d499 9a3d c464 343d ec4c 1cbd
000000c0: e3a3 88bd 0ee7 bd3d 78da 57bc 0060 c0bb
000000d0: f0d2 37bd 4c08 803d d007 a6bd 9227 d5bd
000000e0: 9487 88bd da74 3ebd 4f0d 9cbd ee77 933d
000000f0: f452 8ebd dc29 b13d 50bf e33c 6a01 f4bd
00000100: 08cb 673d bab6 bfbd f0c1 dd3d 1cd2 b33e
00000110: 613c eebe 77e1 98be 99be 053f 3c93 033e
00000120: c5fd a7bd c99a 0f3f 4b7b 713e 0102 a13e
00000130: e57a 993e 0c57 793e d17f 38be f57d 0d3e
00000140: f81b 7cbd d77b 2e3e f8ee cf3d c0c5 0c3f
00000150: cff5 853e fff3 08bf 407b c33e 4b61 83bd
00000160: 92ad afbf b92a 383e 744c 12be b0cc 293e
00000170: c79a afbc 5e6d 45be 3c1e 40bd 0c89 2fbe
00000180: e180 e83c e297 353d ee76 30be b053 84bc
00000190: a9de f23e 0080 bcbe 3715 71be e219 b43d
000001a0: 05ec 1e3e 1717 c63d 9057 93be 12e4 babd
000001b0: d6b8 ecbd 3929 30be b369 8bbe fca4 acbe
000001c0: 0a8b 0c3e 5210 88be 24e6 30bd 3cf8 be3e
000001d0: d960 9e3d 4f6c 3a3e e403 bcbe 947b 833d
000001e0: 2e1f 423e af15 07bf cc57 013d d75c 6bbe
000001f0: 7ee6 c83d 11cb 58be 7adf dabd c86d e43c
00000200: 3c7f 7b3d 27d0 97bd 86c4 a9bd d08e 6e3d
00000210: 7cbc c6bc df2e e6bd a66b f3bc d87b 5f3d
00000220: 3093 48bd c190 763d ccc5 9a3d ded5 a03d
00000230: 8772 c8bd b696 c5bd c200 2d3d d578 c8bd
00000240: cf93 c33c 7047 4c3a 8e9f 663c 9994 edbd
00000250: 928e 473d 2fc5 78bd ecf7 373b 2d0e ebbc
00000260: 3f0d 233d 98f0 ca3d 6a29 6b3d 0944 bc3b
00000270: 3fb4 783d 888f c3bd a617 a9bd d961 af3d
00000280: a3b0 bf3d eada b4bd bb37 04be 4c83 043d
00000290: d5c9 bebc f612 4abd b7b0 4fbd fc76 03bd
000002a0: a25f 383c 58e1 b7bc 1e8c 6abd 7859 9fbc
000002b0: d5fe 303d 0723 b23d 779c f13c aa27 943c
000002c0: 0ef4 953b 8c2d a2bc 7ce3 85bd 43df 2a3d
000002d0: 8fba c03d 23c7 37bd 419b 9b3c 3f20 a53d
000002e0: 0c64 863d 1b72 adbd 1d77 6fbd c83c 423c
000002f0: 605c f43c 9511 e2bd ec7e f2bd 3056 74bd
00000300: 2cbf 7a3b 7382 233f 7cf1 78be de3e a3be
00000310: 90e4 4f3f cefe 003d a22b d9be 6dd2 353f
00000320: 6c21 933e 2b1b f33d b1bd 103f a308 673e
00000330: 1880 27bf dce4 873e f63b 3cbe b777 7abd
00000340: 4ce0 c33d 98d3 dd3e 65d7 053f dee6 b7be
00000350: 58e9 b73e b43a b73e f2ed 99bf b703 103e
00000360: 95e6 75bf f0dc 2d3e c3ec c6bc ffe8 8bbe
00000370: 2da0 933d 1ff4 10be fd01 11be d4d4 cabd
00000380: ea18 d1be 127e 75be e0b1 903e 7d4e 20bf
00000390: e710 1cbf c8e6 293d 9d1c ff3c 7e11 0ebe
000003a0: 0ddb 3ebe fcf9 6b3d 4642 10be 9be8 e0be
000003b0: e6a7 9dbe bc27 40bf 22ac e5bd 0d5d d5be
000003c0: b1e2 dcbe 5438 a43e ca2c a23e 881c 623d
000003d0: aef3 aebe 0a11 24bd 5692 6dbd 5310 2fbf
000003e0: 3d9c 5abd 4eaa d9be 3658 8ebe 549e 423c
000003f0: 66a1 87bd 088b c0bd 5c75 f7bc b806 d93c

fc1.bias f4 [20]
-0.09060795 -0.30321577 -0.064628884 -0.2733794 -0.121559694 -0.1070857 -0.17712297 -0.019973025
0.35828987 -0.03198197 0.061683655 -0.014289521 -0.14374757 -0.09240021 -0.04297039 -0.018147532
0.24167146 0.40155876 -0.11215011 -0.0039733406
00000000: a990 b9bd 193f 9bbe 265c 84bd 62f8 8bbe
00000010: 4af4 f8bd bf4f dbbd b95f 35be 789e a3bc
00000020: c571 b73e 87ff 02bd 00a8 7c3d 981e 6abc
00000030: 9032 13be 523c bdbd b801 30bd 22aa 94bc
00000040: b978 773e 1c99 cd3e f5ae e5bd cc32 82bb

fc2.weight f4 [10, 20]
-0.053795174 0.9149337 -0.22174147 1.159792 -0.05819699 0.07082698 1.3447192 -0.093869075
1.4294399 0.078371435 -0.8253912 0.06945607 1.3525417 1.3578053 1.409649 -0.21362016
2.1576815 1.6110271 -0.18933432 -0.04471123 -0.06376903 -1.3264416 0.04989147 -1.5883396
0.07991338 -0.13485841 -1.5171555 0.011050853 -1.7225711 0.1864856 1.2555764 0.12282849
-1.338355 -1.5567687 -1.1151893 0.17062204 -2.00918 -1.5679343 -0.0644857 0.052736938
0.20971346 1.1323847 0.13676047 1.2250768 -0.20219104 -0.14800763 1.4129627 -0.11273611
1.5291104 -0.0057070726 -0.9632779 -0.038600303 1.3674178 1.5035753 1.381209 -0.1998144
2.1645734 1.7836266 -0.09571388 0.020568006 0.12681139 0.65553325 0.019270346 0.8555195
-0.02361986 -0.20480202 1.0409728 0.2251267 1.417635 0.17648101 -0.8299078 0.024895266
0.9961146 1.0795652 1.1863109 -0.001193285 2.083863 1.7615185 -0.073452234 -0.18707001
-0.08227225 -1.3239731 0.15092184 -1.3601357 -0.16839075 0.18810973 -1.3966768 0.02083017
-1.4881979 -0.19731875 1.3352368 0.18248159 -1.4519624 -1.5480087 -1.0352124 0.11080144
-2.0848587 -1.7705675 0.2019336 0.16452108 -0.08480044 0.52624667 -0.13097389 1.0444156
0.063073814 0.111320585 0.9895632 0.09287281 0.96770763 -0.006576998 -0.84167564 0.06775484
1.0389476 0.99495286 1.1081922 0.11040597 1.8951747 1.5140823 0.10824028 -0.13200173
0.098213464 0.30949408 -0.08413614 1.02979 -0.02974829 -0.12944719 1.1961181 -0.18928461
1.2759588 0.08690376 -0.79722345 0.007896528 0.93593377 1.0433192 1.2199087 0.20130526
1.9254363 1.3903918 -0.21864137 -0.19774885 -0.021889165 0.075147934 0.21215501 -0.024117446
-0.20200586 0.00028036535 -0.17765206 -0.011208132 0.024567908 0.22161162 -0.089349076 -0.10869344
-0.13865589 -0.21362409 -0.011481884 -0.015091598 0.027325727 0.031256877 -0.12468515 0.13045675
0.01987739 1.0917189 0.1723314 1.1139082 0.101530075 0.21186417 1.3319834 0.040675163
1.3320414 -0.2112292 -0.8804262 -0.20227367 1.1490566 1.3715771 1.3420769 0.018756106
2.236341 1.5973926 0.019531116 -0.172284 0.068701476 1.0208957 -0.08651356 1.349945
0.157074 0.17968968 1.6656535 -0.19077843 1.4278257 -0.06883685 -0.98806804 -0.16883783
1.2618105 1.3758371 1.603338 -0.004227596 2.2966547 1.6742069 0.21961984 0.0003754056
00000000: 5458 5cbd 1839 6a3f 3210 63be 1074 943f
00000010: f85f 6ebd bc0d 913d c21f ac3f 6e3e c0bd
00000020: e3f7 b63f 3481 a03d d64c 53bf fc3e 8e3d
00000030: 1620 ad3f 90cc ad3f 616f b43f 3ebf 5abe
00000040: 7417 0a40 2336 ce3f dbe0 41be 1f23 37bd
00000050: 5699 82bd d7c8 a9bf ff5a 4c3d b64e cbbf
00000060: a0a9 a33d 5318 0abe 2732 c2bf a30e 353c
00000070: 367d dcbf 15f6 3e3e bab6 a03f 818d fb3d
00000080: 374f abbf 3244 c7bf 86be 8ebf 8bb7 2e3e
00000090: 6896 00c0 12b2 c8bf 1411 84bd b002 583d
000000a0: 20bf 563e fbf1 903f f00a 0c3e 51cf 9c3f
000000b0: 2b0b 4fbe 508f 17be f6db b43f 31e2 e6bd
000000c0: e4b9 c33f 6502 bbbb 6199 76bf 5a1b 1ebd
000000d0: 8c07 af3f 2875 c03f 75cb b03f 259c 4cbe
000000e0: 5f88 0a40 e04d e43f a405 c4bd 3c7e a83c
000000f0: d8da 013e 07d1 273f d8dc 9d3c 5303 5b3f
00000100: 707e c1bc 9fb7 51be 993e 853f 9d87 663e
00000110: 1075 b53f 70b7 343e d674 54bf 28f1 cb3c
00000120: 5e01 7f3f 312f 8a3f 09d9 973f 0068 9cba
00000130: 035e 0540 7079 e13f 206e 96bd 488f 3fbe
00000140: 5a7e a8bd f377 a9bf 418b 1a3e ed18 aebf
00000150: a06e 2cbe d69f 403e 4ec6 b2bf 08a4 aa3c
00000160: 457d bebf ed0d 4abe 0ae9 aa3f 74dc 3a3e
00000170: e7d9 b9bf 2625 c6bf d781 84bf deeb e23d
00000180: 536e 05c0 f5a1 e2bf aec7 4e3e 3778 283e
00000190: daab adbd 1ab8 063f 051e 06be 69af 853f
000001a0: d82c 813d 0cfc e33d 0454 7d3f 1a34 be3d
000001b0: b0bb 773f dc83 d7bb 0e78 57bf 0dc3 8a3d
000001c0: 3cfc 843f 3bb5 7e3f 3ed9 8d3f 861c e23d
000001d0: 1695 f23f 73cd c13f 14ad dd3d 762b 07be
000001e0: 2424 c93d 0276 9e3e 924f acbd 29d0 833f
000001f0: b0b2 f3bc ce8d 04be 661a 993f d3d3 41be
00000200: 9e52 a33f 99fa b13d d616 4cbf 7060 013c
00000210: 5b99 6f3f 7c8b 853f f825 9c3f f722 4e3e
00000220: b274 f63f 5cf8 b13f 86e3 5fbe ad7e 4abe
00000230: e850 b3bc 29e7 993d 2a3f 593e f391 c5bc
00000240: a0da 4ebe 00fe 9239 6cea 35be 50a2 37bc
00000250: a342 c93c 28ee 623e a6fc b6bd ab9a debd
00000260: cffb 0dbe 46c0 5abe 831e 3cbc c042 77bc
00000270: 34da df3c 3607 003d ee5a ffbd 7496 053e
00000280: e8d5 a23c 72bd 8b3f a477 303e 8b94 8e3f
00000290: 00ef cf3d ecf2 583e 6f7e aa3f 009b 263d
000002a0: 5580 aa3f 784c 58be 9d63 61bf d420 4fbe
000002b0: 4914 933f d78f af3f 2dc9 ab3f 68a6 993c
000002c0: 3620 0f40 5c77 cc3f b8ff 9f3c 386b 30be
000002d0: 5cb3 8c3d b6ac 823f 052e b1bd ffca ac3f
000002e0: 02d8 203e 9200 383e 2234 d53f 6c5b 43be
000002f0: fec2 b63f 56fa 8cbd 07f2 7cbf d3e3 2cbe
00000300: 0283 a13f 6e1b b03f 2e3a cd3f a587 8abb
00000310: 64fc 1240 694c d63f 06e4 603e 16d2 c439

fc2.bias f4 [10]
-0.011876466 0.31183058 -0.0129119335 -0.008229068 0.29751346 -0.010194013 -0.00956066 -0.17948142
-0.011713399 -0.010096981
00000000: 8295 42bc 42a8 9f3e 938c 53bc 36d3 06bc
00000010: af53 983e ca04 27bc 51a4 1cbc fac9 37be
00000020: 8ee9 3fbc cf6d 25bc

fc3.weight f4 [2, 10]
1.5753608 -2.1310163 1.450815 2.6148715 -2.368439 2.4258974 2.8833554 0.060468864
1.63085 1.4302998 -1.7939045 2.3670862 -1.5393459 -2.2880995 2.1659937 -2.6568756
-2.4945395 0.2047044 -1.6863384 -1.6531464
00000000: 6ca5 c93f 9262 08c0 4eb4 b93f 0e5a 2740
00000010: 8194 17c0 e741 1b40 e588 3840 33ae 773d
00000020: b1bf d03f 1014 b73f aa9e e5bf 577e 1740
00000030: 4909 c5bf 3970 12c0 a49f 0a40 400a 2ac0
00000040: 89a6 1fc0 089e 513e f0d9 d7bf 4d9a d3bf

fc3.bias f4 [2]
-1.463625 1.2845165
00000000: 1058 bbbf 096b a43f
