trained_models/model_anze.pt (torch, 8564 bytes, 6 tensors)

fc1.weight f4 [20, 63]
00000000: e0a5 a63c 1446 843d f47d 5b3d a474 e0bc
00000010: 4e8a b83d 8da5 18bd a648 c83c f310 d1bc
00000020: 4264 113e fd75 023e 9971 763b 2df5 babd
00000030: 95db b53d c0de 27bc 5d9b d93c 1f2c c1bd
00000040: e9ec 403d 2680 143e 3f2c 97bd 6ce6 c03d
00000050: 5976 e9bc 73fc 6d3c ca4e 873d 7989 093e
00000060: c0be 93bd 4188 2d3d c03f ed3d 87b8 103d
00000070: d424 1cbd 5b1c af3d 568b d33c 0c41 b33c
00000080: 85af a03c 67f9 473d 70c6 723d 27c8 de3d
00000090: ee99 b33d cff4 e9bc 3210 b9bc 6c5a babd
000000a0: 280c 8abd c098 273d ff11 a0bc c8de 83bd
000000b0: fa51 c93d 1e18 bb3c 43d3 58bd d181 bd3d
000000c0: f007 98bd 2289 7f3c 9bc3 c83d ae0e 2e3d
000000d0: 26d2 a73c 5185 7dbd df3a 913d 2489 443c
000000e0: 5d61 823d 4db3 c63d e730 7bbd b01e c5bd
000000f0: 324e 45bd 1973 873d 3acf 86bc 38a5 3a3d
00000100: bc32 6c3d 40a1 3a3c 6a29 923e 77af d4bd
00000110: e0a4 54be f24d 333e c890 553d dffc 09bf
00000120: 229c 90bc 8d92 243d a502 07bf ba91 9cbe
00000130: f7f9 bd3d ade7 02bf 7745 14be 10cc 73be
00000140: 4c3a 0bbe 7168 2cbf b48c 74be 7589 09bf
00000150: 1a6c b73e 2280 b13e 975c f2be dc75 303f
00000160: 1551 873f f185 d4bc 8def 99be 4292 76be
00000170: 04dd c4bd 2607 a6be 6bdd d8be e7c3 45be
00000180: 091d 63be 208f a8be 2810 37bb c28c 29bf
00000190: 80c7 2abf a0f8 853e 6d5e 22be d687 70bd
000001a0: ea2c 1ebd 7992 27be a772 0bbe fde2 1abe
000001b0: 56ee 2e3e 1e43 e23d 19dd 3c3d e389 123e
000001c0: 6006 00be 9ba6 4a3e b19b babd fab8 e0bc
000001d0: eeda 21be 800f 163e 9801 363e 4ce3 51bd
000001e0: 1baa 663e ab2c 943e 874f 9cbd 781e 823d
000001f0: 4960 75bc 9444 823d b04f 3dbd f6ed c83d
00000200: 6cd3 9f3d 347b 4bbe 0e17 7fbd e544 ec3e
00000210: 74b4 8abe 11e2 a33d e98c 373f a3e4 863d
00000220: 3076 16bd 83b6 333f 166d c53e f845 a7bd
00000230: 15fe 133f f87f da3d cfa5 bd3e 72e9 7ebf
00000240: 9e79 4dbe 5e5b 6e3e 40e1 f739 4a58 91be
00000250: e0cd 3bbe facb 353a ba75 04be f712 4ebf
00000260: 6e25 d0be 5cd0 0b3f 754b d33e c799 53bf
00000270: 8854 dd3c e2f6 d03e c167 f8bd 8d18 be3d
00000280: 2c52 bc3d 455f 83be 05aa 213e 2d75 263e
00000290: 6eb1 3abf cf4b a33e 6250 c43e 3e8a cfbe
000002a0: 45a5 253e fe2c 873e 3f9b 79bd d2a1 47be
000002b0: 93e7 e2be 834e c4be 9a25 a1be a7ca f7be
000002c0: 64ea 38bf b870 ec3e 11a6 063f 1341 7dbe
000002d0: 75ee 983e d728 843b d22a 57bd 451c c23d
000002e0: aefe e4be 4484 b6be f859 e0bc f29a c4be
000002f0: 99cf 1dbf e0af 8a3d 30ca a93c 0cf4 f7bd
00000300: f0f0 e03e f52c 863d 9bd9 c63e 7c1b b93e
00000310: 23a4 313e a932 adbe 9587 ac3e 10e3 bf3e
00000320: 189d f4be a809 2ebe c330 8d3e 2ca7 0abf
00000330: 9e44 b6be 0b98 99be c5b3 b7be 16b0 58bf
00000340: 2051 0abe 54ca e2be d6a1 ad3e e06e bd3e
00000350: 0dac cbbe db9e 673f 2b59 5e3f 7642 55be
00000360: 900a 3abe 6455 62be 9cad c2be 9d4e aebc
00000370: 69fc 8cbd 7ffd 23be 19a5 4ebe 91ec bcbd
00000380: 4309 08be 17e6 19bf 786c bfbe 40fb ec3d
00000390: dbb3 f6bd 4b55 a6bc 03bd e8be eb92 5d3e
000003a0: bc1c 89bd d6f1 b4bd a376 653e 7bbf 3c3e
000003b0: 29c5 44be 3f87 963e 6f52 9bbe 870a 7abe
000003c0: bcf5 0a3e c47f d23d fa12 acbe b432 6a3e
000003d0: 7bd1 993e 6ad9 85be 3c3c af3e ab92 653e
000003e0: 171b d6bd 8f9a f03e 956d 62be c48e b4bd
000003f0: 7d98 cebd e0aa a13c c6e3 d33d 6392 b43e
0.020342767 0.06458679 0.053586915 -0.027399369 0.090107545 -0.037267257 0.024448704 -0.025520777
0.14198402 0.12740321 0.003760433 -0.09128795 0.088797726 -0.010245979 0.02656334 -0.094322436
0.047100935 0.1450201 -0.07381486 0.094189495 -0.028498815 0.014525521 0.06606825 0.13431348
-0.07214117 0.04236627 0.11584425 0.03533223 -0.03812106 0.0855033 0.025823276 0.021881603
0.019614944 0.048821833 0.059271276 0.1087802 0.08769594 -0.028559117 -0.02259073 -0.09099278
-0.067406 0.040917158 -0.019539831 -0.064389765 0.09830089 0.022838648 -0.05293585 0.09253276
-0.07423389 0.01559666 0.09802934 0.04249447 0.020485949 -0.06189472 0.07091307 0.0119955875
0.06366227 0.09702168 -0.061325934 -0.09624994 -0.048170276 0.0661375 -0.016456235 0.04556772
0.05766557 0.011390984 0.2854722 -0.1038503 -0.2076602 0.17510203 0.052140027 -0.53901476
-0.017652575 0.040178824 -0.5273841 -0.3057993 0.09276193 -0.5113476 -0.14479624 -0.23808312
-0.13596457 -0.67346865 -0.23881799 -0.5372537 0.35824662 0.3466807 -0.47336265 0.6892984
1.0571619 -0.025942774 -0.30065575 -0.2407923 -0.09612468 -0.3242733 -0.42356429 -0.19313012
-0.22179045 -0.32921696 -0.0027933214 -0.66230404 -0.6671066 0.26166248 -0.15856333 -0.058723293
-0.038617052 -0.16364469 -0.13617955 -0.15125652 0.17083105 0.11047958 0.046109293 0.14310412
-0.12502432 0.19790117 -0.09111727 -0.027431954 -0.15806171 0.1465435 0.17774045 -0.051242158
0.22525828 0.2894033 -0.07632356 0.06353468 -0.014976569 0.063607365 -0.046218574 0.098110124
0.078039974 -0.19871217 -0.062277846 0.46146312 -0.270908 0.08002103 0.71699387 0.06586578
-0.036733806 0.70200366 0.38559788 -0.08167642 0.57809573 0.10668939 0.37040564 -0.9957496
-0.20065925 0.23277041 0.00047279336 -0.28387672 -0.18340254 0.0006934997 -0.12935534 -0.8049769
-0.40653557 0.54614806 0.41268507 -0.8265652 0.027017847 0.40813357 -0.121291645 0.092820264
0.091953605 -0.25658622 0.15787514 0.16255637 -0.72926986 0.31893775 0.38342577 -0.40535158
0.16176327 0.26401514 -0.06093907 -0.19495323 -0.44317302 -0.3834115 -0.31474 -0.483968
-0.7223265 0.46179748 0.5259715 -0.24731855 0.29869428 0.004033189 -0.05253107 0.09478048
-0.44725555 -0.35647786 -0.02738665 -0.38399464 -0.61644894 0.06771827 0.020726293 -0.12107095
0.4393382 0.065515436 0.38837895 0.3615378 0.1734777 -0.33827713 0.3369719 0.37477922
-0.47776103 -0.16995871 0.27576265 -0.54161334 -0.35599226 -0.29998812 -0.3587934 -0.84643686
-0.13507509 -0.4429499 0.33912534 0.36998653 -0.39779702 0.9047677 0.8685481 -0.20826134
-0.18168092 -0.22102886 -0.38023078 -0.02127772 -0.06884081 -0.1601467 -0.20180167 -0.09224809
-0.13284783 -0.60116714 -0.37387443 0.1157136 -0.120460235 -0.020304343 -0.45456704 0.21638076
-0.06694934 -0.08835189 0.22408538 0.18432419 -0.19215836 0.2940006 -0.3033633 -0.24418078
0.13570303 0.102782756 -0.33608228 0.22870904 0.30042633 -0.26142436 0.34225643 0.2241923
-0.10454386 0.4699292 -0.22112115 -0.08816293 -0.100876786 0.0197348 0.10346179 0.35267934

fc1.bias f4 [20]
00000000: e0da f13c 6479 a03d eb0a 5abe 9f40 d23c
00000010: d83f 503c 47b0 9ebc d691 82be 6cbb 32be
00000020: 5b3d fabd d6de a9bd 81d0 9cbd 036c babc
00000030: d0b0 9c3c bc1c 1c3e b0a5 cc3d 3c48 e9bd
00000040: 8e97 f0bd 98ce 88be 6b25 923d e27e a5bd
0.029523313 0.078356534 -0.21293227 0.02566558 0.012710534 -0.019371165 -0.2550189 -0.17454308
-0.12218734 -0.08294456 -0.076569565 -0.022756582 0.01912728 0.15245336 0.0999254 -0.11390731
-0.11747657 -0.2672012 0.07136043 -0.080808416

fc2.weight f4 [10, 20]
00000000: 462e 20be 221e 963f f8af b5bf ab65 5a3f
00000010: f3e3 3a3f 36a8 0e3b 38cd 7cbf 677e c0bf
00000020: 78df 82bc e041 023d 5d3b f7bf 4660 6cbd
00000030: 5864 e83c 6718 873f 7728 c33f bf7e 9fbf
00000040: 7c2c 15bd c0ce c8bf 26ad 353f f589 933d
00000050: 446c 913d 4f65 83bf d003 ab3f 3803 58bf
00000060: e5ae 5ebf aff2 13be 4df8 6a3f 04d8 c03f
00000070: c67c aabd f026 383d c51f fc3f 84b3 5bbe
00000080: 7c78 27be ffc6 23bf efe4 6dbf 90a1 9e3f
00000090: 55ba 33be 4032 ce3f 8408 52bf f3cb 17be
000000a0: f4bd 513d 096e 6e3f 2569 6bbf 21a4 1e3f
000000b0: 63df 2f3f 9ad8 713e b221 71be 04ef e6bf
000000c0: cd18 0ebe e0b7 b03d 3428 c4bf 08b4 6fbd
000000d0: c007 3abe 72cd 993f 345e 8f3f 3c05 0bbf
000000e0: b8d0 53be 6320 b8bf 1270 463f 2057 e93d
000000f0: c159 44be 1ad0 35bf 532c 9b3f b07e 68bf
00000100: 08fd 6fbf 7412 25be d591 483f bfdf c13f
00000110: c480 113e 26cb c6bd fe47 e13f 5231 bebc
00000120: 77ba 023c 7581 1abf 7cae 44bf 4e16 6a3f
00000130: 7816 15bd cd0a bf3f ce0b 66bf f581 ed3d
00000140: 9caf 92bc e270 42bf 0234 9a3f 22a1 29bf
00000150: 8687 18bf af17 5a3e 5bc4 633f 343f c93f
00000160: 753d d9bd fe04 173e 501a c43f 2511 dbbd
00000170: f248 0b3e 7f2d 33bf 9e63 68bf c6c2 7a3f
00000180: 7cb1 643e 2a96 ad3f ac3c 38bf 8897 4b3d
00000190: 1fab bc3d 65c6 4ebf 12fc b43f c57a 2fbf
000001a0: 0c2f 42bf efa7 1cbe 4c9d 533f dc7e cb3f
000001b0: 20cd 453c e82b 063d 0d5f d23f ea41 b63c
000001c0: adb2 1c3e c48e 33bf efb0 6ebf 8843 8f3f
000001d0: 28e0 563d 41e0 c23f cb4f 28bf 5610 533e
000001e0: 74fc 5e3d 2b8f 963f b3aa bbbf 9da0 1b3f
000001f0: 0eaf 7a3f 3639 0bbd 73f2 6ebf 9ad4 ccbf
00000200: 10c6 c5bc 7808 583e 99d5 fcbf b2ad 3fbe
00000210: 4baa 003d 2a60 903f bced d43f 9431 a6bf
00000220: c0e8 4d3e 5add cbbf 7a7d 6e3f 7368 a9bd
00000230: bab3 f83c 26e1 70bf 17c9 923f f864 6fbf
00000240: f220 84bf dff9 eb3d d30d 8e3f 61c5 d73f
00000250: e0f9 423e 1c58 e03d 59c3 de3f eff7 723d
00000260: 8fa6 0e3e 6273 1fbf 4d7e 5fbf 47ef 863f
00000270: 2ce7 4c3e f753 bc3f df8a 2fbf 51fb 333e
00000280: afb3 b03d 6b32 67bf 0344 a63f 3c71 10bf
00000290: 0e3e 48bf 02b9 8cbd 24c0 763f 9e26 d63f
000002a0: 58cf b33d 18aa 49be 46d5 d83f f06f e8bd
000002b0: 4e01 11be a3f8 2abf 639c 74bf a3b8 903f
000002c0: 8c84 4dbd 20ce cd3f 1ec3 3bbf 0c13 86bc
000002d0: 1d95 4e3e b2cc 70bf 94e0 b13f 3ff5 25bf
000002e0: 549d 45bf 81aa d03d 10f0 7e3f a398 be3f
000002f0: 00cf 573a cef2 a5bd cc6a c43f d20b 59be
00000300: 1167 05be f8ea 26bf 33bd 69bf 7861 953f
00000310: 6040 ea3b f20d bc3f 1004 16bf e51b 6abc
-0.15642652 1.1727946 -1.4194326 0.85311383 0.7300407 0.0021767742 -0.9875064 -1.5038575
-0.015975699 0.031801105 -1.9314991 -0.057709 0.02836816 1.0554322 1.5246724 -1.2460555
-0.036419377 -1.5688095 0.7096733 0.072040476 0.07100728 -1.0265292 1.3360538 -0.8437991
-0.8698562 -0.14448045 0.91785127 1.5065923 -0.0832458 0.04495901 1.9697195 -0.21455199
-0.16354555 -0.6397552 -0.9292745 1.2393055 -0.17551549 1.6109085 -0.82044244 -0.14823894
0.051206544 0.9313665 -0.9195731 0.6196919 0.68700236 0.23617783 -0.2354801 -1.8041692
-0.13876648 0.086288214 -1.5324769 -0.0585213 -0.18167019 1.2015822 1.1200624 -0.5430486
-0.20685089 -1.4384884 0.77514756 0.11393571 -0.19174863 -0.7102066 1.2122902 -0.9081831
-0.9374547 -0.1612032 0.7834752 1.5146407 0.14209276 -0.09706716 1.7600095 -0.023216877
0.007979027 -0.60353786 -0.7682874 0.91440284 -0.03639838 1.4925171 -0.8986176 0.11597053
-0.017906003 -0.75953496 1.2047122 -0.66261494 -0.5958179 0.21298097 0.8897149 1.5722413
-0.10607425 0.14747998 1.532053 -0.106966294 0.13602045 -0.69991297 -0.90777004 0.9795345
0.2233333 1.3561451 -0.7196758 0.04970506 0.09212326 -0.80771476 1.4139426 -0.68546706
-0.7585304 -0.15298437 0.8266189 1.589809 0.012072831 0.032756716 1.6435257 0.022248227
0.15302534 -0.7013972 -0.9323873 1.1192484 0.052459866 1.5224687 -0.65746754 0.206117
0.054439977 1.1762441 -1.4661468 0.6079195 0.9792336 -0.033990107 -0.933387 -1.6002381
-0.024142295 0.2109698 -1.9752685 -0.18718603 0.031412404 1.1279347 1.6635051 -1.298388
0.20108318 -1.5926926 0.9316021 -0.08271875 0.030359138 -0.9409355 1.1467618 -0.9351344
-1.0322554 0.115222685 1.1097969 1.685711 0.19040632 0.109543055 1.7403365 0.05931848
0.13930725 -0.62285435 -0.87302095 1.0541772 0.2001006 1.4713124 -0.68571275 0.17576338
0.08628022 -0.90311307 1.2989506 -0.5642278 -0.7821969 -0.06871225 0.96386933 1.6730535
0.08779782 -0.19693792 1.6940086 -0.113494754 -0.14160654 -0.6678564 -0.9555113 1.1306347
-0.050175235 1.6078529 -0.733446 -0.016366504 0.2017407 -0.9406234 1.3896661 -0.6482734
-0.7719319 0.10188771 0.99585056 1.4890331 0.00082324445 -0.08102952 1.5345092 -0.21195915
-0.13027598 -0.65202284 -0.9130432 1.167037 0.0071487874 1.4691756 -0.5859995 -0.014288877

fc2.bias f4 [10]
00000000: ed74 4e3d c067 253e 061f 543a 1427 253e
00000010: ae26 253e 4555 283e 3c31 ff3c da1c 263e
00000020: b77b 313e b994 2a3e
0.050404478 0.16152859 0.0008091781 0.16128188 0.16128036 0.16438778 0.031151406 0.16221943
0.1733235 0.16658296

fc3.weight f4 [2, 10]
00000000: 4abd 9bbf 41ac cf3f 92f6 d2bf 9c4b 0740
00000010: 4e53 ff3f aab3 ee3f 8ea8 6ebf 5c6f e13f
00000020: df19 f63f 169c e03f 0ea8 8f3f 696a 0ac0
00000030: 1e1a c53f dc44 00c0 d6e9 fabf abaf e1bf
00000040: f932 ad3f b323 ecbf fdcf ddbf e54a 08c0
-1.2167141 1.6224443 -1.6481497 2.1139898 1.9947298 1.8648579 -0.93225944 1.7612109
1.9226645 1.7547634 1.1223161 -2.1627448 1.5398595 -2.0042028 -1.9602611 -1.7631735
1.3531181 -1.8448395 -1.7329098 -2.1295712

fc3.bias f4 [2]
00000000: 8bd8 85bf 5230 413f
-1.0456709 0.75464356
