model.onnx (onnx, 30677 bytes, 6 tensors)

fc1.weight f4 [20, 63]
000000 c8 61 95 bc 88 2b ba 3c 18 55 8c 3c 7e cf 88 bf
       -0.018235102 0.022725835 0.01713042 -1.0688322
000010 b9 57 07 3f 35 61 d1 bc e7 78 60 bf 44 c4 e8 3e
       0.5286823 -0.025559047 -0.8768448 0.4546224
000020 fa de b5 bd be d0 56 bf 31 d1 03 3f 55 eb 20 be
       -0.0888042 -0.83912265 0.51491076 -0.15714772
000030 20 06 02 bf e8 2a 0f 3f 0e 1c a4 bd 6b 21 e7 be
       -0.50790596 0.55924845 -0.080131635 -0.45142683
000040 21 73 6b 3d 40 6c 70 3d 32 45 80 be f2 6b 78 3e
       0.057482842 0.058696985 -0.25052792 0.24259928
000050 a4 36 84 3e d3 ac f8 bd 4f 66 b0 bc de 57 55 3e
       0.25822937 -0.121423386 -0.02153316 0.208343
000060 ed 24 b7 bd f5 f2 59 be 38 d0 c2 3c 0c 06 c3 be
       -0.0894259 -0.21284087 0.023780927 -0.3809055
000070 16 4b 10 3e 81 01 e8 3d 06 17 74 be 1f 22 cb 3d
       0.14091143 0.11328412 -0.23836908 0.099186175
000080 9f 4e 34 3e 23 86 69 bd 33 ef 94 3e 9f fc 28 bb
       0.17608117 -0.05701269 0.29088745 -0.002578534
000090 9a ae c3 3b 80 c1 f2 3e 8f c2 25 3d 29 d4 77 3d
       0.005971742 0.47413254 0.04046875 0.060505066
0000a0 6f f5 a1 bd cb b1 a4 bd f5 ba e8 3a c0 a7 24 bb
       -0.07908141 -0.08041724 0.0017755913 -0.00251244
0000b0 3c 8b 10 3d 49 d2 2d bd cd 49 e8 3d 81 9b 92 3d
       0.035289034 -0.04243687 0.113422014 0.07158566
0000c0 24 00 23 3e bf e8 ef 3e 7a dc 2a be 83 5d 16 3f
       0.15918022 0.4685726 -0.16685668 0.5873644
0000d0 10 3d 60 be 5b d0 1d be a9 3d 87 3e dd 16 30 be
       -0.21898293 -0.15411513 0.2641423 -0.17196222
0000e0 6f 48 81 3d 32 de 44 3e 2a cd a8 bd 66 77 93 bd
       0.06312644 0.19225386 -0.08242257 -0.07200508
0000f0 26 f5 52 3e fb b9 43 3e a7 02 08 be 2c f6 c4 3d
       0.20601329 0.19113915 -0.13282262 0.09617266
000100 26 00 6f bd a2 b2 7e bd 39 a9 fd bd 3e 9d b6 bc
       -0.05834975 -0.062182076 -0.12385792 -0.022291776
000110 63 c1 a7 bb c1 6d b1 3b 00 37 d3 3d 7e 6f 0e bd
       -0.005119489 0.005414695 0.10313225 -0.034774296
000120 cd a3 dd bc 1e b8 22 3c 95 8a 2e 3d bf a5 1a 3d
       -0.027055645 0.009931592 0.04261263 0.037755724
000130 cb 16 d3 3c 98 3b f6 3d 83 c0 80 bd 5c 1f 0a 3e
       0.025767704 0.12023085 -0.06286719 0.13488525
000140 47 d0 8b 3d 9f a4 b3 3d ec 72 c5 bd e0 78 de 3d
       0.06826835 0.08771633 -0.0964106 0.10862899
000150 e4 ef a7 3d 82 e8 40 bd 96 d8 1b 3e 0c 27 71 3d
       0.082000524 -0.047096737 0.1521934 0.05887513
000160 81 1b 93 3d 3d d3 11 bd fc 23 be bd b7 0d 8f 3d
       0.0718298 -0.035601843 -0.09284207 0.06985038
000170 21 43 bd 3d aa c4 9e bd 20 ca c6 3c 7e 8c 07 bc
       0.092413194 -0.077523544 0.024266303 -0.008273242
000180 94 e2 93 3d a6 92 eb 3d ff 74 2b bc 5d fa 7c 3d
       0.07220951 0.1150258 -0.010464906 0.061762203
000190 ca e2 c5 bd a1 31 ae bd 2f f0 49 3d 13 61 79 bd
       -0.09662397 -0.0850556 0.049301323 -0.060883593
0001a0 58 f5 f5 bc 5c 9e 80 3d 08 3d de 3d 7a 97 04 bd
       -0.030024216 0.06280205 0.108514845 -0.03237102
0001b0 b4 e0 38 3d be 8b a8 3d 6f 58 cc 3c 62 17 ff bc
       0.04513617 0.08229779 0.024944512 -0.03113908
0001c0 d8 16 9c bd 4e c0 5d bd 2d f1 5b 3c 0e ae 31 3d
       -0.076215446 -0.054138474 0.0134242 0.043378882
0001d0 cc 0c e6 3d f7 5f 25 3d 01 9b 33 bb 84 8e b8 ba
       0.112329096 0.040374722 -0.0027405622 -0.0014080559
0001e0 a7 ce a2 bc 1b 91 c7 bd 5f 1c 17 3e a0 72 0b bd
       -0.01987393 -0.097444735 0.14756916 -0.03404486
0001f0 97 a9 a9 bd 61 09 f8 3b 15 2b ad bd 9f e6 8f bd
       -0.082843 0.0075694774 -0.08455483 -0.07026409
000200 e8 d3 cd 3d cf 4a 1c be c6 f0 a8 bd 13 73 4c 3e
       0.100501835 -0.15262912 -0.08249049 0.19965772
000210 e0 f5 93 be 53 df 73 be 5f 12 01 3f 68 21 7b 3e
       -0.28898525 -0.2381566 0.5041866 0.24524462
000220 d0 ef b1 bd 68 4c 41 3f 13 61 03 3f ab e5 9c be
       -0.08688319 0.7550721 0.5132 -0.30643973
000230 c6 f7 ef 3e 9f 9a 2d 3e cc ce 06 3f 2b 76 63 bc
       0.46868724 0.16953515 0.52659297 -0.013883154
000240 89 2a b9 be 6f 8d 87 3e 23 3b e7 3e 5d 51 0b bd
       -0.36165264 0.26475093 0.45162305 -0.03401314
000250 78 eb ff bd f8 5e 91 3e 34 62 d0 3d a8 91 da be
       -0.12496084 0.28392768 0.10174981 -0.42689252
000260 42 d0 a7 3d 0e 29 99 3e d1 da 18 3f 63 3c 95 bd
       0.08194019 0.29914135 0.5970889 -0.072869085
000270 fa 1a d7 3d 16 43 f6 3c 7c 31 7b 3e 20 62 6d 3d
       0.10503192 0.030061286 0.24530596 0.057954907
000280 b7 10 ba be 6e d1 90 3d 6d b1 91 be 40 f5 9e be
       -0.36340877 0.070711955 -0.28455678 -0.31046486
000290 e4 3b 0a be 1d 3e 4a 3e c0 3b e9 3e 16 2e d3 bc
       -0.13499409 0.19750257 0.45553398 -0.025778811
0002a0 96 87 24 3e 54 c3 97 3b 34 93 70 3e 5d 0f 7c be
       0.16067347 0.004631439 0.23493654 -0.24615236
0002b0 4f 5d ee be 5b dd 22 bc b9 f0 64 be 37 57 e0 be
       -0.46555564 -0.009940471 -0.22357453 -0.4381654
0002c0 d4 9e 25 be 7b ed b9 3d 22 4d 22 3f 2d d3 ec 3d
       -0.1617387 0.09078499 0.63398945 0.11563716
0002d0 be b0 d9 3d 85 5c 8b bd 1b 08 96 3d 70 3b 38 be
       0.10629414 -0.06804756 0.07325765 -0.17991424
0002e0 15 55 11 bf a1 8e e5 3d 13 cd ad be 7b d6 d1 be
       -0.5677045 0.11208845 -0.33945522 -0.40983948
0002f0 98 22 ff 3c d8 5f 84 3c b0 f8 02 3c 50 d6 c7 3d
       0.031144425 0.016158983 0.007993862 0.09757674
000300 1d 53 b3 3d 2b a0 dc 3c 06 02 07 3e af 75 b9 3d
       0.08756087 0.026931843 0.13184366 0.090556495
000310 2c ae 86 3d 73 2d 86 bd 00 2a bd 3d 02 e5 c4 3c
       0.065761894 -0.065516375 0.092365265 0.02403498
000320 7c 9c 32 bd be ed ac bd 75 d1 a8 ba cf 51 a9 bc
       -0.043606266 -0.08443783 -0.0012879806 -0.020668892
000330 c4 9b be bd 9e b9 56 3c 2a df d5 3d c6 bd b4 3d
       -0.09307054 0.013105778 0.10442956 0.08825259
000340 8b a2 a8 bd ce ed 52 3d 9b 36 9f bd 21 81 b1 3d
       -0.082341276 0.05149632 -0.07774087 0.086672075
000350 02 14 d6 3b 89 b0 c3 3c 43 5c f9 3d 31 97 63 bd
       0.006533147 0.02388789 0.12175801 -0.05556411
000360 6f 49 b2 bd ee da 72 bd f1 31 31 bd 9f 86 16 3e
       -0.087054126 -0.05929082 -0.04326052 0.14699791
000370 59 10 d1 bd bf 0a bd bd 58 48 86 bc 38 ab 15 3d
       -0.10208196 -0.09230565 -0.016391918 0.03654024
000380 ec 2b 58 3b 41 e9 4c bd e1 f1 97 bd d1 ad 8b bc
       0.0032985164 -0.050027136 -0.074191816 -0.017050656
000390 ab b1 a6 3d 25 c7 b4 3d de da 91 bd 0d f8 35 bd
       0.08139356 0.08827046 -0.07121824 -0.044426013
0003a0 70 50 66 bb e6 f9 e3 3d 2d c7 b2 bd 70 85 e0 3d
       -0.003514316 0.11131649 -0.08729396 0.10962951
0003b0 d6 47 eb 3d 68 4a fb 3c 79 e6 cb 3d e6 01 30 3c
       0.11488311 0.030675128 0.099560685 0.01074264
0003c0 f4 2b 9d 3d b6 b8 90 3d a3 47 15 3e 96 07 5e bd
       0.07674399 0.07066481 0.14578108 -0.054206453
0003d0 60 33 da bd 65 b1 1f 3d ba 38 60 bd 33 98 94 b9
       -0.1065433 0.038987536 -0.0547416 -0.00028342157
0003e0 bb eb 5e 3d b6 b0 dc 3d 1a 65 92 bd 37 fa 50 3d
       0.05442403 0.107758924 -0.0714819 0.051019873
0003f0 02 b0 83 bd 56 13 5c bd 04 6e 98 3d dc 03 c3 3e
       -0.06430055 -0.053729378 0.07442859 0.38088882

fc1.bias f4 [20]
000000 4f d1 ef bb f6 c3 5d bc 5a 84 b0 bd 52 af 6f 3c
       -0.0073186527 -0.01353549 -0.08618994 0.014629202
000010 22 af 01 3e ff a5 10 be 02 e0 09 3e c3 35 2b be
       0.12664464 -0.14125822 0.13464358 -0.16719727
000020 e9 d9 fe bd b5 d4 f5 bd 53 80 cf bd be 72 2d bc
       -0.12443907 -0.12003461 -0.10131898 -0.010586439
000030 83 94 77 be c4 61 fc bd 4f ed 5e bd b8 d6 ac 3d
       -0.24177746 -0.12323335 -0.054425534 0.08439392
000040 54 8f 60 bd 5a b5 27 3d 0c 2e 34 3d 77 72 f8 3d
       -0.05482419 0.040944435 0.043989226 0.121312074

fc2.weight f4 [10, 20]
000000 ea 31 35 be a8 fc be bd 42 ed a4 bd e0 74 a8 bc
       -0.17694822 -0.09325534 -0.08053066 -0.020563543
000010 fa 32 32 be 05 8a 2b bd d0 2c 23 be f3 9b 7a 3b
       -0.17402259 -0.041879673 -0.15935063 0.0038239926
000020 12 b2 af 3d c0 dc 96 bd 5a 80 28 be 2d 89 d3 bc
       0.08578886 -0.073663235 -0.16455212 -0.025822246
000030 2b a1 92 bd 3d a1 8a bd 66 40 73 be 1f 86 2b bc
       -0.071596466 -0.06769035 -0.23755035 -0.010468989
000040 6c fa 05 3e b7 1c 33 3d f6 30 a8 bd 05 42 fd bd
       0.1308381 0.043728556 -0.082124636 -0.12366108
000050 d4 6f a9 3f 8a ba 39 be 12 6c 97 3f 33 1c b2 bd
       1.3237252 -0.18137565 1.1829855 -0.08696785
000060 5c ea 28 3f 46 b2 cd 3f 1c 6f 22 3f 03 60 97 3f
       0.65982604 1.607003 0.6345079 1.1826175
000070 bb 6d ee bc 74 ed 1f bd 6d f4 40 be 80 84 6c 3d
       -0.029105058 -0.039044812 -0.18843241 0.05774355
000080 65 09 16 40 45 92 01 40 13 1d 54 3e eb 26 99 3f
       2.3443234 2.0245526 0.20714216 1.1965002
000090 9d 28 fc bd ec b3 9a 3f f5 49 a4 3f 68 a5 05 3f
       -0.12312434 1.2086158 1.283507 0.52205515
0000a0 af a0 b8 3f 5e b3 1f 3e 39 32 a5 3f 74 e3 87 3d
       1.4424037 0.15595767 1.2905952 0.0663518
0000b0 11 5d 80 3f 8c 8c b9 3f 57 5b df 3e 94 28 9f 3f
       1.0028402 1.4496017 0.43624374 1.2434258
0000c0 3f 65 af 3c 72 27 2f 3e be 80 be bd 1e ae c7 bd
       0.021410583 0.17104891 -0.093018994 -0.09750007
0000d0 0d 73 1a 40 a8 f3 fe 3f a0 e3 d4 bc 54 38 80 3f
       2.4132721 1.9918108 -0.025987446 1.001719
0000e0 60 fc 80 3d f1 91 8e 3f 28 7c b2 3f 05 36 40 3f
       0.06298137 1.1138288 1.394414 0.7508243
0000f0 68 d7 ae 3f 1f 30 39 be 70 52 a2 3f 5a 3f 31 be
       1.3659487 -0.18084763 1.2681408 -0.17309323
000100 df 26 03 3f ec df ab 3f e2 13 0f 3f 0a 9d b7 3f
       0.5123119 1.342771 0.55889714 1.43448
000110 c4 34 51 bd 3e 08 23 be 42 5f 08 be 54 5b ca 3d
       -0.05107571 -0.15921113 -0.13317588 0.09880701
000120 df dc 18 40 9f 1e e1 3f e1 72 1b be 56 14 83 3f
       2.388481 1.758747 -0.15180542 1.0240581
000130 b7 b7 43 be 10 74 72 3f f0 95 6d 3f 22 a3 35 3f
       -0.1911305 0.9470835 0.9280691 0.70952046
000140 c5 4c a2 3f a0 ef 40 3d 56 cb 41 3f b6 17 86 3c
       1.2679678 0.047103524 0.7570089 0.016368728
000150 98 69 83 3f 33 6f b8 3f ab 2b 58 3f 9c 02 c5 3f
       1.02666 1.4408935 0.8444163 1.5391421
000160 80 74 03 3d 65 e4 40 be 6e 21 17 3e 21 57 0a be
       0.032093525 -0.18837126 0.14758846 -0.135098
000170 bb 96 06 40 a5 dd f1 3f 5b bd 3d be 28 06 8c 3f
       2.1029499 1.8895766 -0.18529265 1.0939379
000180 40 27 41 3e 69 bc 80 3f 06 5e 8f 3f b7 60 0f 3f
       0.18862629 1.0057498 1.1200569 0.5600695
000190 76 4d 9a bd ac 33 8e bd 6b 9e 68 3d 82 a4 b1 3d
       -0.07534306 -0.069434494 0.056791704 0.086739555
0001a0 4b 2b 6c 3c 45 95 e3 bd 51 ce 16 3d 54 36 73 bd
       0.014414619 -0.11112455 0.036817852 -0.059377983
0001b0 1c d6 13 be 1c fa 8d 3d 85 57 2f be 40 09 15 3e
       -0.14437145 0.0693247 -0.1712323 0.1455431
0001c0 3a d9 70 3d a3 67 25 be 6a 93 09 3e 01 18 0d bd
       0.058800913 -0.16152816 0.1343514 -0.03444672
0001d0 b8 ee 58 3d 3a 6d f1 3c 9f 16 19 bd e5 70 bf 3b
       0.052962035 0.029471029 -0.03737509 0.0058423155
0001e0 6a cb 81 3f 30 6d e7 bd f4 60 86 3f 01 a4 7e bc
       1.0140202 -0.11300123 1.0498338 -0.015542031
0001f0 9c f4 3c 3f b4 0a be 3f 7e 75 28 3f 33 5c d2 3f
       0.73810744 1.4847016 0.6580428 1.6434387
000200 7c 4e 98 bd 9c 3a ae bd 02 aa bc bd 93 4e cb bd
       -0.07436845 -0.085072726 -0.09212114 -0.09927096
000210 e0 ce 0d 40 ce f2 ff 3f 48 96 1d be dc 8a 73 3f
       2.2157516 1.9995973 -0.15389359 0.9513376
000220 4b 0f 41 be 96 af 7a 3f e5 4d b5 3f 37 ac 14 3f
       -0.1885349 0.9792417 1.4164397 0.5807528
000230 3e ba c2 3f 4c 72 a8 3d 5c 70 8b 3f a4 5b cd 3d
       1.5213087 0.082249254 1.0893664 0.10027245
000240 44 d6 35 3f e0 2f b9 3f 3a 9c ec 3e d4 0a b4 3f
       0.7103007 1.4467735 0.4621294 1.4065804
000250 78 68 47 be 94 7a 03 bd 7e aa 55 be 10 29 23 3d
       -0.19473445 -0.03209932 -0.20865819 0.039834082
000260 56 f8 0e 40 d5 a2 ec 3f c9 a1 44 bd bb bd 75 3f
       2.2339072 1.8487192 -0.048005853 0.9599263
000270 1c 42 67 bd 31 7e 88 3f 7e 9f 93 3f 7b d4 34 3f
       -0.05645953 1.066351 1.1533048 0.7063672
000280 6f 7c b6 3f 76 af 38 bd d8 70 95 3f b8 f2 19 be
       1.4256724 -0.045089208 1.1675062 -0.15033996
000290 44 a2 85 3f 1e 13 d4 3f 44 9b 2f 3f 6d 27 a4 3f
       1.0440145 1.6568334 0.6859629 1.2824532
0002a0 18 15 22 3e 00 e4 3b 3e 52 6b df bd bf 22 6b 3e
       0.15828359 0.18348694 -0.109091416 0.22962473
0002b0 ed ab 21 40 de 04 0c 40 01 24 10 3e ef d2 83 3f
       2.5261185 2.187797 0.14076234 1.0298747
0002c0 60 1a 58 3d ce 5f 7f 3f 54 fa ac 3f 9d 0c be 3e
       0.05275953 0.9975556 1.3513894 0.37118998
0002d0 c4 2f bd 3f cc 28 30 be 44 b1 7c 3f 76 f2 10 3e
       1.4780202 -0.17203063 0.98707986 0.14154992
0002e0 e7 1c 55 3f 4b f3 9f 3f cc 2b 47 3f 8e ec ba 3f
       0.83247226 1.2496122 0.77801204 1.4603441
0002f0 f0 fe fa 3d 0c bd b8 3d 2c ad ca 3d 58 9f d5 bc
       0.12255657 0.09020433 0.09896311 -0.026076958
000300 4d b9 10 40 5e e1 e3 3f 47 d5 86 3c 69 fc 4d 3f
       2.2613099 1.7803152 0.01645912 0.8046327
000310 88 16 b8 bc 6d d9 71 3f 76 17 91 3f d0 fe 38 3f
       -0.022471681 0.9447239 1.1335285 0.72263813

fc2.bias f4 [10]
000000 df 37 3a bd 1b da 94 bc 2e 0f 88 bc c7 64 ae bc
       -0.04546344 -0.018170407 -0.0166088 -0.021288289
000010 47 b8 75 bc 4e e5 04 be 02 9f 76 bc fc c0 8d bc
       -0.014997548 -0.12978098 -0.015052559 -0.017303936
000020 cd 6d 72 bc 3f d3 d5 bc
       -0.014796686 -0.026101707

fc3.weight f4 [2, 10]
000000 7b e1 4c be 66 f2 1a 40 2f da 1a 40 3a 57 3e 40
       -0.20007889 2.4210448 2.4195669 2.974074
000010 66 0f 38 40 e8 15 c6 bd ec a6 34 40 32 30 41 40
       2.8759398 -0.09672147 2.822688 3.0185666
000020 71 06 07 40 3f be 2a 40 c7 0a 83 3e 88 e9 27 c0
       2.1097682 2.6678617 0.2559416 -2.6236286
000030 78 68 2b c0 f2 f6 2a c0 34 ee 38 c0 58 2c 16 3e
       -2.6782513 -2.6713223 -2.8895388 0.14665353
000040 64 9a 21 c0 6e 53 34 c0 0d 89 24 c0 c3 90 46 c0
       -2.5250483 -2.8175921 -2.570865 -3.1025856

fc3.bias f4 [2]
000000 42 43 1e c0 86 66 19 40
       -2.472855 2.3968825
