onnx_model.onnx (onnx, 20339 bytes, 6 tensors)

fc1.weight f4 [20, 63]
-0.05785393 -0.09633388 0.024415165 0.021964855 -0.19661357 0.19544685 0.0633987 0.58963245
0.566445 -0.56961495 0.6679322 0.67484385 -0.5401583 0.48624194 0.754328 0.75445473
0.6773141 -0.637731 0.26667932 0.19826895 0.556211 -0.3582427 -0.75557506 0.58906925
-0.7421535 -1.7432063 0.18938658 1.1260493 0.5097915 -0.32821855 0.34847128 0.51580393
0.0502597 0.4046167 0.040995315 -0.5108511 0.30072108 0.3050139 -0.93789136 0.21624108
0.356642 0.18259008 0.24798088 0.066145666 0.02162785 0.41142216 -0.35476598 -0.65835816
0.4595521 0.063664265 -1.6095073 -0.2256925 0.083343595 0.4656826 0.065440446 -0.09934942
0.32230163 0.24258162 -0.38601103 -0.37125766 -0.034399573 0.09742831 -0.92294157 0.015647516
-0.046521783 -0.08039464 -0.08296381 -0.09579407 -0.11935605 0.07807203 0.08239299 -0.00097058713
0.12220636 -0.044422172 -0.05478368 -0.033232085 -0.06074173 -0.112189084 0.056192726 0.024402618
0.121658176 -0.08656035 -0.10020437 -0.10703355 0.07763785 0.07536374 0.00381881 0.08557841
0.10211761 0.055776298 -0.021606244 0.0072378814 0.09382053 -0.0797604 0.08467455 0.031389683
-0.11770655 0.08421193 0.04482411 -0.023276336 -0.05234859 -0.08281289 -0.02183108 -0.122587055
-0.019280933 -0.017796762 0.026857331 0.0489541 0.038512677 -0.02172827 0.020549685 0.0011700243
-0.12325072 0.114031464 0.018861368 -0.09701124 -0.110393986 -0.063019596 -0.038918674 -0.050139934
-0.0078058466 0.12331313 0.054017752 0.055899426 0.11238496 -0.11493254 0.04015042 -0.008545339
-0.03521859 0.061236028 0.5526402 0.3554023 0.16625096 0.84412813 0.4649904 0.10406231
0.89731044 0.23559876 0.12988599 0.9336804 0.2604496 0.10646409 0.93332654 0.3414915
-0.12343753 1.161916 0.36814666 0.08451721 0.2925585 0.26722777 0.0135206 -1.2217765
0.27061558 0.022970859 0.78228176 0.42715448 0.24056591 1.4423814 0.13135038 0.2428199
0.8751164 0.22849552 0.2420304 1.2761966 0.13536546 0.062228486 0.63275874 0.29225323
0.1508787 0.4058787 0.07729193 0.23844016 0.2372117 0.16991304 0.11277805 0.26404583
0.12672605 0.29511046 0.05338468 0.17894542 0.24246676 -0.0584283 0.27925944 0.0818868
0.041652963 0.18466276 0.22186491 0.10997007 0.18071687 -0.06553164 -0.08581564 0.012195498
0.013116704 -0.02206189 -0.021691408 -0.013382141 -0.054808535 0.03718302 0.0013325299 -0.05339835
0.054198965 -0.054152053 0.042351406 0.12106397 -0.13791932 0.1068633 0.108797185 -0.12866855
0.086855896 -0.02708217 0.10913717 -0.08091567 -0.005753599 -0.06644065 0.07785982 0.037345834
0.08018626 0.0107614305 -0.07508138 0.004190671 0.0025144198 0.0303678 0.08476195 0.07473867
-0.069150195 0.1004585 -0.049467687 -0.0005478544 -0.019074839 -0.07484109 0.1275977 0.0764354
0.012434529 0.098712385 0.089920245 -0.07155418 0.14740749 -0.13882124 -0.08354499 -0.052308757
-0.015958853 0.0765376 0.009185067 -0.13659585 -0.054334346 -0.048826486 -0.05988693 0.061671194
-0.08349691 -0.042750485 -0.034012344 0.01052067 0.11203827 0.016538367 -0.087393895 -0.045214128
00000000: 3ef8 6cbd b34a c5bd 5002 c83c a4ef b33c
00000010: 1155 49be 3823 483e 2dd7 813d 27f2 163f
00000020: 8a02 113f 49d2 11bf 9bfd 2a3f 91c2 2c3f
00000030: d047 0abf b4f4 f83e a41b 413f f223 413f
00000040: 7564 2d3f 5742 23bf 318a 883e 0407 4b3e
00000050: d863 0e3f 966b b7be 5e6d 41bf 3ecd 163f
00000060: c6fd 3dbf 6221 dfbf 8eee 413e 6222 903f
00000070: b281 023f 430c a8be d46a b23e ba0b 043f
00000080: 1ddd 4d3d ec29 cf3e b4ea 273d 23c7 02bf
00000090: 1df8 993e c82a 9c3e a619 70bf 4d6e 5d3e
000000a0: c899 b63e e5f8 3a3e b3ee 7d3e 6177 873d
000000b0: e42c b13c eda5 d23e e3a3 b5be 298a 28bf
000000c0: 6a4a eb3e 6962 823d 5604 cebf ef1b 67be
000000d0: 0cb0 aa3d f36d ee3e a405 863d b577 cbbd
000000e0: b804 a53e 5167 783e 3da3 c5be 7c15 bebe
000000f0: 91e6 0cbd 7e88 c73d e645 6cbf 382f 803c
00000100: a08d 3ebd f2a5 a4bd eee8 a9bd ae2f c4bd
00000110: f270 f4bd 3ae4 9f3d a8bd a83d 006f 7eba
00000120: 5447 fa3d 06f4 35bd da64 60bd 5e1e 08bd
00000130: 52cc 78bd 64c3 e5bd 582a 663d 00e8 c73c
00000140: ec27 f93d 8e46 b1bd f337 cdbd 6834 dbbd
00000150: 9800 9f3d 4e58 9a3d 0045 7a3b bc43 af3d
00000160: 0a23 d13d b075 643d 94ff b0bc c02b ed3b
00000170: fa24 c03d 6c59 a3bd da69 ad3d 7892 003d
00000180: 2210 f1bd 4e77 ac3d 7c99 373d 04ae bebc
00000190: 7a6b 56bd ce99 a9bd 18d7 b2bc ec0e fbbd
000001a0: 0cf3 9dbc 84ca 91bc e803 dc3c 1884 483d
000001b0: 78bf 1d3d 7cff b1bc d057 a83c 805b 993a
000001c0: e06a fcbd 5489 e93d 2883 9a3c d4ad c6bd
000001d0: 3e16 e2bd 6b10 81bd 3069 1fbd 885f 4dbd
000001e0: 30c8 ffbb 988b fc3d b841 5d3d ccf6 643d
000001f0: 162a e63d c061 ebbd c474 243d c001 0cbc
00000200: 5e41 10bd a1d2 7a3d d479 0d3f 4af7 b53e
00000210: b13d 2a3e c818 583f 3913 ee3e 9f1e d53d
00000220: 23b6 653f cd40 713e d500 053e ae05 6f3f
00000230: a659 853e d809 da3d 7dee 6e3f f9d7 ae3e
00000240: d1cc fcbd aab9 943f b87d bc3e 5c17 ad3d
00000250: 3aca 953e 14d2 883e 8285 5d3c 2c63 9cbf
00000260: 208e 8a3e 622d bc3c 9e43 483f feb3 da3e
00000270: e956 763e f49f b83f b780 063e c8a5 783e
00000280: a107 603f bbfa 693e d1d6 773e 695a a33f
00000290: 3e9d 0a3e 4ce3 7e3d 7afc 213f 37a2 953e
000002a0: f27f 1a3e 55cf cf3e 3b4b 9e3d a829 743e
000002b0: a0e7 723e affd 2d3e 2ef8 e63d 0431 873e
000002c0: 79c4 013e b818 973e e5a9 5a3d 783d 373e
000002d0: 3549 783e 8352 6fbd 18fb 8e3e 44b4 a73d
000002e0: 4c9c 2a3d 3c18 3d3e 8e30 633e fd37 e13d
000002f0: d80d 393e 7435 86bd 1cc0 afbd a0cf 473c
00000300: 72e7 563c 23bb b4bc 2eb2 b1bc c440 5bbc
00000310: ea7e 60bd 394d 183d 49a8 ae3a 3ab8 5abd
00000320: bcff 5d3d 8bce 5dbd ab78 2d3d 63f0 f73d
00000330: b93a 0dbe 25db da3d 0fd1 de3d b0c1 03be
00000340: 81e1 b13d 6ddb ddbc 4f83 df3d 1db7 a5bd
00000350: b088 bcbb 0912 88bd f874 9f3d f2f7 183d
00000360: b238 a43d b650 303c 44c4 99bd e551 893b
00000370: f7c8 243b e4c5 f83c ac97 ad3d 9610 993d
00000380: 9e9e 8dbd 30bd cd3d a19e 4abd e39d 0fba
00000390: d642 9cbc 4946 99bd f9a8 023e 2a8a 9c3d
000003a0: 32ba 4b3c b829 ca3d 1b28 b83d ff8a 92bd
000003b0: fdf1 163e 2827 0ebe a319 abbd b541 56bd
000003c0: 24bc 82bc bfbf 9c3d f77c 163c c8df 0bbe
000003d0: b18d 5ebd 48fe 47bd ff4b 75bd ef9a 7c3d
000003e0: 6e00 abbd 221b 2fbd 8750 0bbd e35e 2c3c
000003f0: 5274 e53d 787b 873c 92fb b2bd 7332 39bd

fc1.bias f4 [20]
-0.2735232 -0.09722273 0.093542665 -0.034773853 0.026228614 -0.11017223 0.020349521 0.16509046
-0.31962204 -0.013631954 -0.0062556006 -0.44434375 -0.11216258 -0.20557196 -0.16060415 0.058291383
0.06161313 0.050149657 0.024951098 -0.36411893
00000000: 3c0b 8cbe b61c c7bd 4c93 bf3d 076f 0ebd
00000010: 64dd d63c faa1 e1bd 0ab4 a63c 790d 293e
00000020: 80a5 a3be 8f58 5fbc c8fb ccbb 0681 e3be
00000030: 7fb5 e5bd 7581 52be 6a75 24be f2c2 6e3d
00000040: 0d5e 7c3d ba69 4d3d 3f66 cc3c cc6d babe

fc2.weight f4 [10, 20]
2.9050562 -0.22118755 1.2486501 0.06811227 0.8763885 -0.021554187 3.7649136 1.3418024
1.312198 -0.20005581 0.2760583 1.4437593 0.14703606 1.154904 0.68565136 2.89401
-0.037011802 1.3068146 1.5195053 3.1110396 2.9400628 -0.111357845 0.9502023 0.020791918
0.7693238 -0.20652238 3.6716082 1.0164407 0.8052465 -0.09776816 0.45268378 2.2251053
-0.2047033 0.9543309 0.4841211 2.691564 -0.34589604 1.1969609 1.4950243 2.7836616
-0.053837728 -0.11504199 -0.12595867 -0.0050367266 0.026020585 0.092360884 -0.033602063 0.01019767
-0.23121731 0.15221122 -0.23929155 0.011785515 -0.021453694 0.037683193 0.048339 -0.008924073
-0.022839017 -0.1223332 -0.17565964 -0.048231717 0.12025552 -0.046833932 -0.122315116 -0.002725497
-0.2055409 -0.07408737 0.05061079 -0.065779544 0.0060033416 0.1421574 -0.020691527 0.046079356
0.10144347 -0.15907994 -0.12619324 -0.053743683 -0.1792736 0.08468542 -0.07002539 -0.033181414
2.7692976 -0.15516332 1.1121824 -0.17808902 0.6241442 -0.10356786 3.622421 0.9582506
1.3770353 -0.06618174 -0.13602762 2.1970606 -0.08385344 0.87892044 0.48877695 2.5976589
-0.3534832 1.1741939 1.1852348 2.8436825 2.904608 0.047320068 1.1649404 0.034550864
1.2199774 0.032990485 3.791125 1.2964666 1.3387756 -0.090287745 -0.019505553 2.2293634
-0.15800416 1.1839583 0.5845144 2.6498692 -0.4587354 1.1592082 1.3558266 3.002709
2.8055043 -0.12667175 0.953194 0.08202606 1.0323118 0.06780431 3.8089235 1.2495602
1.4609978 0.05019494 0.27982232 2.0590894 0.10290795 1.178313 0.7934684 2.7438848
-0.2665699 1.5203265 1.6281176 2.9013813 2.8185003 0.014474481 1.2910728 -0.06741288
1.2291251 0.13097593 3.4435918 0.804414 1.449642 0.1616621 0.19574426 2.252078
-0.20488064 0.9335848 0.53455913 2.8799958 -0.19606167 1.4069786 1.4337318 2.922602
2.8551598 0.124554485 1.276745 0.03290365 1.1379607 -0.14682522 3.8203866 1.4921434
1.4891423 0.1462595 0.35487866 1.8357993 0.04876373 1.1143154 0.7130913 2.8229742
-0.20167409 1.4639988 1.4188849 2.5618644 2.765614 -0.18162884 1.2421271 0.20406339
1.3234527 -0.0014376342 3.7181542 1.0663054 1.3661528 -0.05319369 0.41193736 1.9675803
-0.20782731 1.0834403 0.7271351 2.7236278 -0.16499321 1.3133147 1.1814342 2.6804461
00000000: 71ec 3940 fd7e 62be c4d3 9f3f 727e 8b3d
00000010: ff5a 603f 6892 b0bc 58f4 7040 2ec0 ab3f
00000020: 1bf6 a73f 6edb 4cbe 8357 8d3e 1bcd b83f
00000030: 9f90 163e e5d3 933f d986 2f3f 7637 3940
00000040: b099 17bd b345 a73f 267f c23f 461b 4740
00000050: fd29 3c40 950f e4bd 7540 733f d053 aa3c
00000060: 68f2 443f 9a7a 53be a1fb 6a40 bb1a 823f
00000070: a224 4e3f ac3a c8bd 2bc6 e73e 2068 0e40
00000080: be9d 51be 084f 743f b9de f73e 9642 2c40
00000090: 4919 b1be 0436 993f f55c bf3f 8327 3240
000000a0: f384 5cbd 239b ebbd 4ffb 00be 200b a5bb
000000b0: 1f29 d53c b427 bd3d 51a2 09bd 2114 273c
000000c0: 3bc4 6cbe 42dd 1b3e d808 75be 0818 413c
000000d0: a8bf afbc b159 1a3d 1eff 453d 4636 12bc
000000e0: e418 bbbc d489 fabd 1fe0 33be 9f8e 45bd
000000f0: 8748 f63d f0d4 3fbd 5980 fabd 409e 32bb
00000100: 5079 52be 1ebb 97bd 424d 4f3d 6db7 86bd
00000110: aeb7 c43b b691 113e 4781 a9bc b5bd 3c3d
00000120: 98c1 cf3d dae5 22be cd38 01be 5622 5cbd
00000130: 8093 37be 8d6f ad3d 7969 8fbd 3ce9 07bd
00000140: 2c3c 3140 22e3 1ebe fe5b 8e3f f85c 36be
00000150: eac7 1f3f 631b d4bd bfd5 6740 e94f 753f
00000160: b142 b03f 4b8a 87bd d34a 0bbe a49c 0c40
00000170: 5abb abbd ee00 613f f940 fa3e 0b40 2640
00000180: c0fb b4be fc4b 963f c6b5 973f e5fe 3540
00000190: 19e5 3940 b0d2 413d c41c 953f 3585 0d3d
000001a0: 3828 9c3f 0821 073d cba1 7240 9ef2 a53f
000001b0: 005d ab3f c8e8 b8bd 1cca 9fbc e4ad 0e40
000001c0: d8cb 21be f28b 973f bca2 153f 7597 2940
000001d0: 5edf eabe ef60 943f ba8b ad3f 622c 4040
000001e0: 628d 3340 3db6 01be 8604 743f 47fd a73d
000001f0: cb22 843f fcdc 8a3d 67c5 7340 97f1 9f3f
00000200: fa01 bb3f 3699 4d3d df44 8f3e 1fc8 0340
00000210: 67c1 d23d f6d2 963f bf20 4b3f cf9b 2f40
00000220: da7b 88be 0f9a c23f 2866 d03f 3bb0 3940
00000230: 4f62 3440 6026 6d3c e041 a53f c40f 8abd
00000240: f953 9d3f 8e1e 063e cf63 5c40 13ee 4d3f
00000250: de8d b93f c08a 253e 2f71 483e 0c22 1040
00000260: 3bcc 51be 6aff 6e3f ded8 083f da51 3840
00000270: 64c4 48be e017 b43f 8684 b73f e90b 3b40
00000280: f0ba 3640 6c16 ff3d 616c a33f fac5 063d
00000290: b2a8 913f 5a59 16be 3781 7440 8efe be3f
000002a0: 379c be3f 0dc5 153e a8b2 b53e 79fb ea3f
000002b0: 7abc 473d e3a1 8e3f 278d 363f 9cab 3440
000002c0: a783 4ebe 5064 bb3f 059e b53f 96f5 2340
000002d0: d2ff 3040 e9fc 39be 05fe 9e3f fef5 503e
000002e0: e666 a93f 006f bcba 3df6 6d40 b27c 883f
000002f0: 18de ae3f a0e1 59bd 74e9 d23e acd9 fb3f
00000300: afd0 54be 2cae 8a3f 8725 3a3f eb4f 2e40
00000310: fbf3 28be b21a a83f 3c39 973f 6e8c 2b40

fc2.bias f4 [10]
-0.062015098 -0.09989436 -0.07314201 -0.20424756 -0.085678175 -0.10588601 -0.12724131 -0.10549813
-0.104864955 -0.09718652
00000000: 8b03 7ebd 6a95 ccbd 7acb 95bd 4626 51be
00000010: 0a78 afbd c4da d8bd 8c4b 02be 670f d8bd
00000020: 70c3 d6bd ba09 c7bd

fc3.weight f4 [2, 10]
3.7068834 4.027699 -0.21582088 -0.26230156 3.7771816 3.7846339 3.4203 3.6196601
3.769049 3.4892917 -3.493229 -3.7765658 0.22833362 -0.101236925 -3.8038502 -3.6827874
-3.5411155 -4.019112 -3.718798 -4.057166
00000000: 943d 6d40 e9e2 8040 2600 5dbe 644c 86be
00000010: 58bd 7140 7137 7240 32e6 5a40 83a8 6740
00000020: 1938 7140 8e50 5f40 1091 5fc0 41b3 71c0
00000030: 4ad0 693e 4e55 cfbd 4872 73c0 cab2 6bc0
00000040: a3a1 62c0 919c 80c0 c900 6ec0 4ed4 81c0

fc3.bias f4 [2]
-3.3779988 3.7290714
00000000: 2231 58c0 1ba9 6e40
