out_models/model.pt (torch, 8564 bytes, 6 tensors)

fc1.weight f4 [20, 63]
00000000: 0674 dbbd 073e b5bd 3e2a 00be 374f 00be
00000010: 0884 aabc 0a0a a23d 7643 b43d 3c14 b83d
00000020: e05f 8f3d d879 49bc 3c3c e7bd 9051 e2bb
00000030: 5244 803d a89c 0c3d 0a9c 71bd 7086 8ebd
00000040: c045 95ba 1024 a1bb 6a2e cabd 9602 883d
00000050: 2002 ab3d a031 3ebb 5806 d6bd cd31 e0bd
00000060: 20b3 aabb 40e8 8f3c 90b3 903c b81e 28bd
00000070: f091 263c 58da e83c ec8b 91bc 10a8 75bc
00000080: fc61 2b3d 2e68 a53d 1027 973c 8a5d 82bd
00000090: 9ac2 ea3d 28c1 a43d ac6b de3d 7662 e53d
000000a0: bca4 e2bc 6875 473d 3cc4 4a3d fe25 813d
000000b0: a47f a5bc 6e35 c63d e02e ae3b 2c6c ca3d
000000c0: ba1d 36bd acb2 fe3d 9bf4 83bd 1291 c2bd
000000d0: 50d0 9a3d 9ec6 e1bd 173e 00be 764d b03d
000000e0: 849b 74bd 28d0 053d a03a 0dbc 1651 ac3d
000000f0: 962d b2bd 80e3 e73d a071 fbbd 8359 d4bd
00000100: f4cd e33d 2241 f7bd a11d 773b dad4 093e
00000110: 9729 d1bc 11c1 573d cc31 133e fdb9 cabd
00000120: 21cc 1bbd 9308 15bd b9bc cbbd ffcb 27bb
00000130: c2fa 3e3d 1cd5 9cbc d1ef 9bbd d565 d6bc
00000140: 45f2 52bd 5a1d 2fbc 5f91 54bc e71b 9c3d
00000150: edc8 99bd 6fc5 dc3d ee7b fb3d 140c a13d
00000160: fb32 f33d 83d2 a2bd a492 aebc 4fc4 acb9
00000170: a717 8b3c c473 0a3d a42a 683d 0277 3ebc
00000180: 0ee6 b03d 40aa fc3c 0356 c03d eae1 c5bd
00000190: 04b5 a33c cb34 903d 16f6 07be b9d0 983d
000001a0: 3e58 f5bc c2b8 963d ee1a 5bbd 0a16 993c
000001b0: 15e2 90bd d95b 73bd 8f85 c23d d202 c0bd
000001c0: c1f9 593d 8b5e f33d 2702 563d 36dc 023e
000001d0: b2cb 8c3d 60f9 38bd 61a2 d73c 5cc1 39bd
000001e0: 3941 1cbd 461f b83d 66a0 02bd d7aa 223d
000001f0: 2724 3d3d d6c5 e6bc 50b3 de3d 388f 8a3d
00000200: 6c25 e2bc 4e52 d0bd 004c e4bb bc4d 7f3d
00000210: 50c5 e43d fcdb ffbc a01d ae3c 780b 6c3d
00000220: e404 583d af47 d2bd 5069 e33c a21b c13d
00000230: f66d b1bd fc66 a93d 84bc e73d 503a 6f3d
00000240: 1280 4fbd 007e 3d3b aa89 94bd 546f 673d
00000250: ee88 b93d 8640 a43d 2efd 49bd 08fd eb3c
00000260: c812 053d ba00 d63d 24e2 7b3d 487d cb3c
00000270: 8c96 94bd de9a 9fbd 626c e83d b850 5dbd
00000280: 081e ed3c b013 14bc e0d7 ad3d d65a 4cbd
00000290: 6ec3 f73d 8a2c c1bd b114 d2bd f07d 50bc
000002a0: 62ca 52bd c8f7 a2bd 5a80 53bd 3817 06bd
000002b0: 5a9a 953d 7657 94bd 80da 49bb 88bf e93d
000002c0: c476 f4bd 7479 70bd 5e21 cfbd 2051 3f3c
000002d0: 3eb1 9dbd f6d7 39bd da87 f53d fea5 a7bd
000002e0: 6466 483d 3800 3cbc 6817 f13d dc99 7ebd
000002f0: c089 4e3d 907c fcbd 9035 d2bb f05d a5bb
00000300: d217 54be 3a35 e53e 407f 85be 04d7 293c
00000310: 49b9 113e d540 323d 5eb5 113e b34b 5a3e
00000320: 6535 d43e 65a9 f63e 40a8 073e 0947 f53e
00000330: 8e5f 893e d0c9 763e 2deb bebe 8562 203e
00000340: 076f 2f3e 0207 3f3e 85b3 19bf 6c12 a8be
00000350: b15b 943e 7d74 82bf 1e67 2abf f047 0eb8
00000360: 4965 813e 23b6 293e 076a a1be 323c e33e
00000370: 25e4 f03d 80e2 c2bd dc6f ce3d e00d 69be
00000380: 3868 05be 1d80 a13e a781 0ebe 4c1d c8be
00000390: a5dc b63d ad29 6b3e b25d 1b3e 8687 9a3e
000003a0: 2c7b 3abd de4a 153e 7538 9d3d a87b ddbe
000003b0: 326d 86bd ecb3 013e 6d38 16bf c715 c3be
000003c0: 7d9b 84bd 269a 183e 05bc f63d 604b 4b3e
000003d0: b7d2 003d 9721 e53d 27f0 0b3e 9b3e 7fbe
000003e0: 44c5 83bd 8b3a 803e 52b5 d1be 6448 9bbe
000003f0: 5050 b13d 1046 d93c 5398 d8bd b7f5 dfbc
-0.10715489 -0.088497214 -0.12516114 -0.12530218 -0.02081491 0.07912071 0.0880193 0.089882344
0.070007086 -0.012297116 -0.11290786 -0.0069066957 0.06263031 0.034329087 -0.0589867 -0.06959236
-0.0011388585 -0.004917629 -0.09872134 0.06641118 0.08350015 -0.0029021278 -0.10450429 -0.10946999
-0.0052093416 0.0175668 0.017663747 -0.04104492 0.01016663 0.028424427 -0.017766915 -0.0149936825
0.041841492 0.08076511 0.018451244 -0.063654974 0.114628986 0.08044654 0.108603805 0.112004206
-0.027666442 0.04869595 0.04950355 0.063060746 -0.020202465 0.0967816 0.0053156465 0.098839134
-0.044461943 0.12436423 -0.06443139 -0.09500326 0.07559264 -0.11024211 -0.12523685 0.086085245
-0.059718624 0.032669216 -0.008619934 0.084139034 -0.08700101 0.11322689 -0.122775316 -0.103686355
0.11123267 -0.1207297 0.003770687 0.13460103 -0.025532527 0.052674357 0.14374465 -0.09898756
-0.03803647 -0.03638513 -0.09948105 -0.002560377 0.04662586 -0.019144587 -0.07614101 -0.026171604
-0.051500577 -0.01068815 -0.012974112 0.076225094 -0.07509027 0.10779845 0.12279497 0.07863632
0.11874958 -0.07950308 -0.021310158 -0.00032952658 0.016979052 0.03380181 0.05668129 -0.011625053
0.086376294 0.0308429 0.093914054 -0.0966223 0.019983776 0.070413195 -0.13277468 0.07461686
-0.029949304 0.073594585 -0.05349248 0.018687267 -0.07074372 -0.059413765 0.094981305 -0.09375538
0.0532167 0.11883267 0.052248146 0.12779316 0.06874789 -0.045159698 0.026322545 -0.045350417
-0.03814814 0.0899034 -0.03189125 0.039713707 0.046177056 -0.028170507 0.10874045 0.06765598
-0.027605735 -0.101719484 -0.0069670677 0.062329993 0.11170447 -0.031232826 0.02125436 0.057628125
0.05273904 -0.10267579 0.027760178 0.09429099 -0.086635515 0.08271596 0.113152534 0.05840522
-0.050659247 0.0028914213 -0.0725282 0.056502655 0.090593204 0.08020119 -0.049313717 0.028807178
0.032488614 0.10449357 0.06149496 0.024840012 -0.07255277 -0.077932104 0.113487974 -0.054032058
0.028944984 -0.009037897 0.084884405 -0.049891315 0.12097822 -0.09432323 -0.10257853 -0.012725338
-0.05146254 -0.07957417 -0.051636077 -0.032736987 0.07304831 -0.07243244 -0.0030800402 0.11413485
-0.11936715 -0.058709577 -0.10113786 0.011677057 -0.07699822 -0.045371972 0.11988802 -0.08185957
0.048925772 -0.0114746615 0.117720425 -0.06215845 0.050424337 -0.12328446 -0.0064150766 -0.0050465986
-0.20712212 0.4476717 -0.26073647 0.010366205 0.14230837 0.04351886 0.14229342 0.2131794
0.41446987 0.48176113 0.13247776 0.47905758 0.26830715 0.24100423 -0.372888 0.15662582
0.17132197 0.18655017 -0.6003955 -0.32826555 0.28976205 -1.0191799 -0.66563594 -3.3922435e-05
0.25272587 0.16573386 -0.31526205 0.44381863 0.11762265 -0.09515858 0.10079929 -0.22759199
-0.13028038 0.31543055 -0.13916646 -0.39084852 0.08928803 0.22965117 0.1517246 0.3018152
-0.045527622 0.14579341 0.07676784 -0.43258405 -0.06563796 0.12666291 -0.5867985 -0.38102552
-0.064749695 0.14902553 0.12047581 0.19852972 0.031450953 0.111880474 0.1366583 -0.24926226
-0.0643411 0.25044665 -0.4095865 -0.30328667 0.086578965 0.026522666 -0.105759285 -0.027338846

fc1.bias f4 [20]
00000000: 9e29 3abd 539a 8bba 3274 86bd 4c8b a1be
00000010: 712d c0bc f45d 3dbd a104 c2bd 2252 33bd
00000020: 8064 943c 8f90 84be b81b 8ebd e938 9cbd
00000030: bfec 0dbd 9a3a a1be 22a8 c4bd be44 a0be
00000040: 86de a9be 65ae d9be 5370 7cbc 81f3 80be
-0.045449845 -0.0010650851 -0.06565131 -0.31551588 -0.023459168 -0.04623218 -0.09473539 -0.0437795
0.018114328 -0.2589154 -0.06938881 -0.07628042 -0.034649607 -0.31490022 -0.09602381 -0.31302446
-0.33177584 -0.42515865 -0.01540764 -0.2518578

fc2.weight f4 [10, 20]
00000000: 7027 ff3d ef0e 3cbe 8ce3 493e 0231 853f
00000010: cdef 223e 24dd d83f 895a cdbd b680 203e
00000020: a847 5a3e ca03 573f 18e7 0bbd 4abb cabd
00000030: 34ee c83f 45f5 783f e8a0 96bd 0d7a c33f
00000040: b864 c33f 541e cd3f 7568 c7bd 5dc0 c93f
00000050: 2cf2 073e 7062 903c 381d 2e3d ad9a 5f3f
00000060: af91 933c 1f8f d13f 60d6 d23d 88cc b2bd
00000070: 90ef 74bc 038a 843f 88ce fbbc 940f 0dbd
00000080: e6b7 d13f 6c0f 8a3f a04c 8abc b114 d23f
00000090: b603 953f 4767 e53f 903d 1d3d e1bb a83f
000000a0: b0ad 5abd f34f 7bbd dd74 29be 2319 5ebe
000000b0: 09bf dd3d 9551 5cbe 26eb e1bd 4c63 363e
000000c0: 3113 c53d 65c0 08be 4002 403d 11ae 793d
000000d0: 4cb4 86bd 336e 8d3d 1809 933d 013e 42be
000000e0: ad8b 78be 8ca5 78bd b098 2c3c c7ac 0ebe
000000f0: 36c7 253e 9250 1fbe b864 1c3d 93bf 713f
00000100: bd2f 76be 2a15 cb3f 0956 5dbe e8bb 793d
00000110: 51f9 383d 5ffd 9a3f fe6a 9dbd d70b 0f3d
00000120: 59e3 cc3f 4d40 803f 0c15 02be ce65 b63f
00000130: 75e4 8e3f 49f2 d03f 5961 08be 372f ae3f
00000140: 16f1 47be b169 56bd 1564 eebd 8e21 8e3f
00000150: ab45 1f3e 2e2f ea3f 6fdc 933c 309f fb3c
00000160: 85d0 efbd bf73 9d3f fc71 f53d eba6 6f3d
00000170: 1932 e13f 7fe6 7a3f ab04 e5bd c0c7 e33f
00000180: b71c ab3f 7334 f23f bbd4 2cbe dd85 c23f
00000190: 6078 de3b c8e2 39be 04ab 0d3e 538b 7e3f
000001a0: e7d5 26be 6037 b83f 67a4 3cbe 608a 873b
000001b0: 89fd 103e 6899 843f 2b18 42be fab1 bfbd
000001c0: 6652 d33f 596f 803f 50b7 643c 4cfe da3f
000001d0: d3bf ab3f 84ce c93f 984e a5bc 0583 b83f
000001e0: 5e6a 20be 8f93 473e 5067 b33d 416d b3bf
000001f0: 9053 873c 2946 02c0 4df9 d93d c00f ffbc
00000200: da98 c33d f9a2 88bf 62b8 383e 7280 383e
00000210: 058f 08c0 207c 2abf 11c0 5abe dc8d f0bf
00000220: 0ec3 dcbf eb8a 01c0 3bfb 37be d07f 03c0
00000230: b0cb fc3d 73d6 18be a117 54be a61e 873f
00000240: 82e2 f7bd 56ee d63f ca04 d13d 4ed6 093e
00000250: 7efd 11be 1a8b 963f b20f 463e d7f0 4cbe
00000260: 0851 d23f efc0 943f 5c8e 27be 48b2 cd3f
00000270: 65e8 ac3f 95c0 d63f b2c2 1ebc a262 be3f
00000280: 9a64 633e 4429 f43d c949 2dbe da58 703f
00000290: 3db0 c63d 8d95 c93f 6fdd d83d 44be 883d
000002a0: f0ed 1a3e 997e 913f 00b9 c83a b2fd 3c3e
000002b0: 1b4d d23f 5f47 8f3f 716a 5cbe 0dbc dc3f
000002c0: 9750 aa3f 726a d93f a305 20be 72bb ab3f
000002d0: 106b 64be c85a adbc e123 36be a681 833f
000002e0: 7ff7 23be bd46 dd3f badc 37bd 2eb1 99bd
000002f0: df97 d9bd 20ef 8a3f e0ba 00be b448 563e
00000300: 1d44 d33f 8e1b 823f b8ce 35be b822 ca3f
00000310: 2c31 9e3f ed1f e43f 008a 523e 9ad8 ac3f
0.12458694 -0.18365072 0.19715708 1.0405581 0.15911789 1.6942487 -0.10027034 0.156741
0.21316397 0.83990157 -0.034155935 -0.09899004 1.5697694 0.9724925 -0.07354909 1.5271622
1.5265112 1.602488 -0.097367205 1.576183 0.13275975 0.017625064 0.042508334 0.8734539
0.018013803 1.6371802 0.10294795 -0.087304175 -0.014949694 1.0354618 -0.03073813 -0.034438685
1.6384246 1.0785956 -0.01688224 1.6412565 1.1641757 1.7922143 0.03838879 1.3182336
-0.053388298 -0.061355542 -0.16548486 -0.21689276 0.10827453 -0.21515496 -0.11031179 0.17811316
0.09622801 -0.13354643 0.046877146 0.06095702 -0.06577358 0.069057845 0.07179469 -0.18968965
-0.24272032 -0.060704753 0.01053445 -0.13933097 0.16189274 -0.15558079 0.03818199 0.94432944
-0.24041648 1.5865834 -0.21614851 0.060970217 0.04515964 1.2108573 -0.07686423 0.0349234
1.6006881 1.0019623 -0.12703341 1.4249818 1.116347 1.632394 -0.13318385 1.3608159
-0.1952556 -0.05234689 -0.11640183 1.110399 0.1555392 1.8295648 0.018049447 0.030715555
-0.11709694 1.2300948 0.119846314 0.058508795 1.7593414 0.9800796 -0.11182531 1.7795334
1.3368138 1.8922256 -0.16878025 1.5197102 0.006789252 -0.18152916 0.13834769 0.9943134
-0.16292535 1.4391899 -0.1842209 0.0041363686 0.14159216 1.0359316 -0.18954532 -0.09360118
1.6509521 1.0033981 0.013959721 1.7108855 1.3417915 1.5766149 -0.020179078 1.4414984
-0.15665576 0.19489883 0.0875994 -1.4017717 0.016519338 -2.0355322 0.106432535 -0.03113544
0.095506385 -1.0674735 0.18039086 0.18017748 -2.1337292 -0.6659565 -0.2136233 -1.8793292
-1.7247026 -2.0241039 -0.1796693 -2.054676 0.12343538 -0.14925556 -0.20712139 1.0556228
-0.1210375 1.6791484 0.102059916 0.13460657 -0.14256856 1.17612 0.19341925 -0.20013748
1.6430979 1.1621379 -0.163629 1.6070032 1.3508421 1.6777521 -0.009689974 1.487385
0.22206345 0.11921933 -0.16922678 0.93885577 0.097015835 1.5748764 0.1058911 0.06676915
0.15129828 1.136676 0.0015313923 0.18456152 1.6429781 1.1193656 -0.21524979 1.7244889
1.3305844 1.698561 -0.1562715 1.3416579 -0.22306466 -0.021161452 -0.17787124 1.027394
-0.16012381 1.7287213 -0.044888236 -0.075044975 -0.1062467 1.0854225 -0.12571287 0.20926172
1.6505162 1.0164659 -0.17754638 1.5791845 1.2358756 1.7822243 0.20560455 1.3503602

fc2.bias f4 [10]
00000000: ee21 94bc 30f4 a1bc 39e8 47bd 6008 68bc
00000010: 120a 7dbc c6bd c1bc 4fa0 b93e af74 a0bc
00000020: c17c 9abc 5ba2 1dbd
-0.018082585 -0.019769758 -0.04880545 -0.014162153 -0.0154442955 -0.023650061 0.36255118 -0.01958689
-0.018858315 -0.038484912

fc3.weight f4 [2, 10]
00000000: 870f 3d40 ba2c 2240 44ac adbd 5c68 1a40
00000010: 9ebc 1240 4d41 3740 053a eabf 8de7 2840
00000020: 40c2 2d40 1347 2e40 edcf 33c0 da3e 3ac0
00000030: a194 573c 64a5 33c0 51d9 23c0 b394 37c0
00000040: 1fc7 ef3f 3821 12c0 0496 2ec0 4dca 29c0
2.9540727 2.53398 -0.08480123 2.4126196 2.2927623 2.8633606 -1.8298956 2.6391327
2.714981 2.723088 -2.8095658 -2.9100862 0.0131579945 -2.8069696 -2.560139 -2.8684509
1.8732642 -2.2832775 -2.7279062 -2.6529725

fc3.bias f4 [2]
00000000: 6f6c 12c0 dfe3 1f40
-2.2878683 2.4982831
