out_models/model.onnx (onnx, 30713 bytes, 6 tensors)

fc1.weight f4 [20, 63]
00000000: b075 e93c ce42 98bd 0039 fdba fce7 5f3d
00000010: a0b2 ac3c b44a 9dbd 2ea1 4abd 466d cbbd
00000020: 3a0b c0bd bcae 63bd c049 773b 000c d33a
00000030: a216 29bd ba53 93bd fbe8 e8bd 3076 8dbc
00000040: d152 a8bd 34b6 5dbd 800c cf3a 5cca f93d
00000050: f00f bf3d d608 ba3d 003f 453c 701d c73c
00000060: 4e72 c3bd bcd6 c83d 5025 003e c062 f43b
00000070: f028 9bbd 56a8 c53d 80cc cd3a c29f b13d
00000080: 62dc 8f3d 4017 563d f827 c73d 4443 b23d
00000090: 42cb aa3d 9837 fe3d 009c 953d 0680 02bd
000000a0: 16a3 adbd f07b 21bc 1644 993d b817 883c
000000b0: 92b5 e33d 7419 af3d 8084 a1bd 200e a1bd
000000c0: bc80 303d 1836 f43d 7c56 28bd be92 52bd
000000d0: d873 f93d 1a39 f4bd 5077 9fbc 1250 e83d
000000e0: e0ee b03c d041 9abd 647f 1bbd 4cd0 fa3d
000000f0: 8261 aabd 6888 a63c d7fa 00be d6c5 f73d
00000100: 24ea 963d aa7a b23d b854 17bc bc55 733d
00000110: b00a 32bc 6428 d93d c0a5 f8bc e87e 6a3d
00000120: 10f5 0c3c 9203 9a3d 9834 a63d c2c2 c2bd
00000130: c4e7 0abd 8003 d43a 6808 a7bd 4815 693d
00000140: 642b bdbd 3691 04bd a82e 883c 5c01 dfbd
00000150: 6088 36bc 2c0c 9b3d 4c08 b8bd c04e dcbb
00000160: 8cf2 af3d 6085 dcbc 40c1 d0ba 9825 76bd
00000170: 76ab 2cbd 4c8f 55bd ba08 03bd bad3 4fbd
00000180: 80e7 d03c 8f4f c7bd f42e 883d 406e cdbb
00000190: 884b 35bd 9057 9fbd 52ab 73bd 7e1c 73bd
000001a0: f86b a8bd fcbc 9cbc e8a1 223d 0048 b8bd
000001b0: 986c d63c 50bd 6d3d 1a28 87bd 6685 833d
000001c0: e230 e63d 6488 4a3d 306f 163d 009e 06ba
000001d0: a457 d33d a210 8c3d 303f da3c 70f3 3a3c
000001e0: 04a5 84bd 105c 583d 4297 a2bd 0e8a 3bbd
000001f0: 0069 d53d a04e 1f3c 48de ca3d 18ee 63bc
00000200: 6c51 b63d 905b 403f 93c3 7fbc 91bb 33bf
00000210: 2e06 dc3e 80eb 523d ad2a 6a3d 6cb0 b53e
00000220: 845a f3bd 1b4e f43e 9de5 593e 9a85 cf3c
00000230: b34d 263f cab5 45bf d16b be3e 92d3 24be
00000240: 5a7f 0dbf aa3c ba3e 9a2d db3e e6c0 50be
00000250: 2b68 d8bd 0549 2f3e 7e39 d9be 266d 31bf
00000260: e0a0 4dbe 8839 a0bf 4599 803e 9d6a 5b3d
00000270: 399e 78be 0c75 b13e a0f6 7b3e de51 36bc
00000280: 1e09 9e3d af9f 7d3e f69f 80be 78fe 1cbe
00000290: c65d 6b3b 4a7e a8bf 5d92 723e 196d 793e
000002a0: cbac b3be 68e9 a73e f39d e83e a54f 3abe
000002b0: 4914 1fbe cd8e d73e 3bbd 17bf c72d cbbd
000002c0: dbb3 373e 3ac9 64bf 16f0 e93e 44be 0a3f
000002d0: 58b4 cebe dcf8 8a3e ce4a c93e 2004 fbbe
000002e0: b836 3ebe 9661 bf3e 047d 21bf c2bc 4cbe
000002f0: 3d10 983e 94ad 48bd 9c9b 93bd d7ed ddbd
00000300: 4538 f93d b634 8bbc 5b5e 0b3e 6473 f93d
00000310: ddd0 7abd aec3 133e 9799 4cbd 47b0 023e
00000320: a3cc 0f3e 743f 86bd ac68 843d 5f8b 053e
00000330: 017b c1bd 07d4 eb3d 046a c83d 96fd 9abc
00000340: ff73 bf3d 16df 4fbd 6cdf b53a e1ff b4bd
00000350: 7348 13bd a0ae 883d f080 413d 5c16 c6bc
00000360: d6ee 02be 7392 c2bd 9d92 7bbd e774 9bbd
00000370: 22de 0a3d 287f 993d 1faa f63c 670c 4a3d
00000380: 598e 553c fd50 d43d 0f13 73bc f02b 5abd
00000390: 1a95 c53c f5db e73b 6b28 95bd 1880 2ebd
000003a0: a87f e83d c626 d83c cd17 cbbd 7e4f d53c
000003b0: ab38 57bd 59a3 8cba e373 1e3d b011 c73d
000003c0: 2b1b 9d3d 187a 3ebd 9da3 b7bc bf43 273d
000003d0: ad4d fa3c ccd7 99bd 7ad3 993d 207e 72bd
000003e0: 016b 66bd 804b 483c 2528 d5bd 7e7b 973d
000003f0: 3a87 f43d e0ac d03c c865 c5bc 105f c23c
0.0284985 -0.07434617 -0.0019319355 0.054664597 0.021081269 -0.07680264 -0.04947012 -0.09932952
-0.09377141 -0.05558656 0.0037733167 0.0016101599 -0.04128135 -0.07193704 -0.113725625 -0.01726827
-0.08218921 -0.05412884 0.0015796572 0.121968 0.09329212 0.090837166 0.012038946 0.02430603
-0.09543286 0.09806582 0.12514234 0.007458061 -0.075761676 0.09651248 0.0015701205 0.086730495
0.070244566 0.052268267 0.0972442 0.08704236 0.083395496 0.124129474 0.07305145 -0.031860374
-0.08478372 -0.009856209 0.074836895 0.016612872 0.11118616 0.08549777 -0.078866005 -0.07864022
0.04309152 0.1192438 -0.041098103 -0.051409476 0.121802986 -0.11924954 -0.019466072 0.11343397
0.02159828 -0.07532084 -0.037963286 0.12246761 -0.083193794 0.020328715 -0.12595688 0.12098281
0.073688775 0.087148026 -0.009236507 0.059407935 -0.010866806 0.10603407 -0.030352473 0.057249933
0.008603349 0.07520212 0.081155 -0.09509803 -0.033912435 0.001617536 -0.081559 0.05690506
-0.09236792 -0.032365046 0.01662381 -0.10888931 -0.011140913 0.07570681 -0.089859575 -0.006723255
0.08591184 -0.026919067 -0.0015926734 -0.060094446 -0.042155705 -0.05213861 -0.031990744 -0.050739028
0.025501013 -0.097319715 0.066495806 -0.0062692463 -0.044261485 -0.07780373 -0.059489556 -0.059353344
-0.082237184 -0.019133084 0.039705187 -0.08998108 0.026174828 0.05804187 -0.06599446 0.06421928
0.112397924 0.04944648 0.03672713 -0.0005135238 0.103194505 0.0683911 0.026641458 0.011410579
-0.06476787 0.052822173 -0.079390064 -0.045785956 0.10420418 0.0097233355 0.09905678 -0.013911746
0.08902249 0.75139713 -0.015610593 -0.7020808 0.42973465 0.05149412 0.057169605 0.35486162
-0.11882499 0.4771584 0.21278997 0.02533226 0.6496231 -0.77230513 0.37191632 -0.16096333
-0.5527245 0.36374408 0.4280823 -0.20386085 -0.105667435 0.17117698 -0.42426676 -0.6930717
-0.200809 -1.2517557 0.25116935 0.05356847 -0.24279107 0.34659612 0.24605799 -0.011127917
0.07716583 0.24767946 -0.2512204 -0.15331447 0.0035914048 -1.316354 0.23688646 0.24358024
-0.35092768 0.32795262 0.45433006 -0.18194444 -0.15535082 0.42101136 -0.5927312 -0.09920841
0.17939703 -0.8936955 0.45690984 0.5419657 -0.40371966 0.2714299 0.39314884 -0.49026585
-0.18575561 0.3737914 -0.63081384 -0.1999388 0.2969989 -0.048993662 -0.072074145 -0.1083638
0.12168936 -0.016992908 0.13610213 0.12180212 -0.061234344 0.14430115 -0.049951162 0.12762557
0.14042906 -0.065550715 0.06465277 0.13041447 -0.09447289 0.115150504 0.09785846 -0.018919747
0.093482964 -0.05074986 0.0013875789 -0.088378675 -0.035957765 0.06673932 0.047242105 -0.024180584
-0.12786421 -0.09500589 -0.06141912 -0.07590657 0.03390325 0.07494956 0.030110417 0.049328234
0.013034427 0.1036701 -0.014836087 -0.05326456 0.024118949 0.0070757815 -0.072831 -0.04260263
0.113524735 0.026385676 -0.09916649 0.026038881 -0.052544277 -0.0010729834 0.038684737 0.097201705
0.076711975 -0.046503156 -0.022416884 0.040836092 0.030554617 -0.07511863 0.07511039 -0.059202313
-0.05625439 0.012225032 -0.104080476 0.07396601 0.11939855 0.025473058 -0.024096385 0.02372697

fc1.bias f4 [20]
00000000: b0ee b7bd 6cff c8bd 860d 53bd 1c17 5a3c
00000010: fc68 e3bd 7c7f 153d d93d 723c db99 97bd
00000020: ec8c 8abe 540c 983d dcaf 013c f833 9dbe
00000030: 502c ecbc 8ac9 26bd 38ac 7c3e 1c3f f2bd
00000040: 16d6 adbd c9a3 0abe 2804 8bbe bebd 6a3d
-0.08981073 -0.09814343 -0.05152657 0.013311174 -0.111040086 0.03649853 0.014785253 -0.074023925
-0.2706064 0.074242264 0.007915463 -0.30703712 -0.028829724 -0.040719546 0.24675071 -0.118284434
-0.08488099 -0.13539042 -0.27151608 0.05730986

fc2.weight f4 [10, 20]
00000000: 6ad3 413e 5eb6 2c3e 3b3e a03f 8166 7f3d
00000010: e626 b3bd fb60 8fbd 7225 3b3e d3c9 e43e
00000020: 5271 f23f 1737 1ebd b299 a8bd eae4 c43f
00000030: db76 843c b748 babd 0aa6 37bf 0c61 2e3e
00000040: f26c 983d 8481 e03f 097d 0540 d4cf 4c3d
00000050: 1e3c 3a3e b852 b93d f6e4 6dbf fa31 073e
00000060: f5cd dfbd 8980 c3bd b99e 3fbd 6095 21bf
00000070: f841 e9bf d17d a9bd 9734 9cbd dccb 78bf
00000080: 66d4 6fbd a20c 8fbd a9e3 f43f 38dc bc3d
00000090: 2cdc 84bd 0dcb 04c0 cb60 f7bf 7241 203e
000000a0: 58e8 d0bd 5c49 91bd 0384 a13d c51c 5a3c
000000b0: aa0e 55be 21bf 4bbd 00ff b6bc 1e03 78be
000000c0: a5cb 6cbe 9a17 113e dad7 c23d bc7d 86be
000000d0: 3322 153e 74ad 333e d512 3abd 3c1c 883d
000000e0: caf5 dbbc 4f8b 833c 9a1b 4e3c e48e 0abd
000000f0: a2d8 18be 0444 58bd af2a 9b3f 7e6b 5a3e
00000100: 133f 4cbe 6646 49be 4e8a 8cbd 0b33 ac3e
00000110: 143d f13f 2667 413e 4bd2 7abd 0969 a63f
00000120: f33e 2ebe 9cdf 08be c7de 20bf 0054 9eb9
00000130: c66a 213e 4d32 e13f fc57 f13f 00a0 de3c
00000140: 5818 ae3c 889b 043d 5780 953f 263f c4bd
00000150: 64b6 cb3d 1882 433e c0cf ddbd 21a4 b73e
00000160: b4de f73f 1443 3ebe 658c 0d3a b9f7 a33f
00000170: 16f6 133e 8e7f 53be f058 1bbf ac36 4fbe
00000180: ec4b 5c3e e331 d13f c80a 0440 0072 1e3a
00000190: c89f 5abe be1f 493e a6ba 56bf 994c c03d
000001a0: e449 48be ba76 403e cb02 b9bd 1ee9 22bf
000001b0: 07bd f3bf af18 0d3e 16db 2a3e d241 8cbf
000001c0: 20f7 e63d 316c 323e bcda f33f 145d bfbd
000001d0: 8df2 b23c 46ff 06c0 415e fbbf bcdd 033d
000001e0: c23f 153e f8fa 72bd 28a0 943f 1850 31bd
000001f0: 7232 acbd 545d 173e e6d7 583e 96d0 a03e
00000200: d7df bd3f 5e00 363e 2030 2b3e c4fb c03f
00000210: 6093 283e de73 87bd 0deb 1dbf 169f babd
00000220: 403b 583d c833 fd3f 35ff e93f d79a 55be
00000230: e642 3b3e f843 18bd 20c8 b93e 1732 043e
00000240: 7697 31be fa45 9dbc 92f2 1b3e eb6d 5a3e
00000250: 874c f83f 7444 1d3e 436e f0bd 1af7 133f
00000260: 1fd8 ba3d 8bbc 073e 89bb babe b04d 90bd
00000270: aed3 c5bb 9df9 ca3f d960 d13f 5757 28be
00000280: 8868 1abd e8a0 fa3d e2f4 a33f 1907 8f3d
00000290: 2461 aa3d dc2f b43c b96a 1fbe 6250 a73e
000002a0: 5689 f33f 7165 82bd 2466 92bd a61e a93f
000002b0: 7ecb afbd c355 0ebd 783a 1abf 8e77 0f3e
000002c0: c6a8 1cbe dc19 eb3f 92bb fc3f 8cb6 25be
000002d0: e157 52be 509a 503d 88ed 9f3f b41b 8c3d
000002e0: b243 163e 2c79 56bd 7628 3b3e 321f b33e
000002f0: 3752 f73f e271 0c3e 56e2 0e3e d347 b53f
00000300: 84af 46be 8e4a 203e aa64 20bf ea49 1b3e
00000310: e92d 4bbe aeb3 f13f 81f0 e63f 40bb 7fbc
0.18928304 0.16866443 1.2518991 0.062353615 -0.08747654 -0.070009194 0.18276003 0.4468523
1.8940833 -0.038626757 -0.0823244 1.5382359 0.016169956 -0.090959005 -0.7173773 0.17029208
0.07442655 1.7539525 2.0857565 0.050002888 0.18186995 0.090489805 -0.9292749 0.13202658
-0.10927955 -0.095460005 -0.04678223 -0.63118553 -1.8223257 -0.08275951 -0.07627218 -0.97186065
-0.05855217 -0.069848314 1.9131976 0.09221691 -0.06487307 -2.0748932 -1.9326414 0.15649965
-0.10200566 -0.0709407 0.07886507 0.013312523 -0.20806375 -0.04974282 -0.02233839 -0.24219939
-0.23124559 0.1416916 0.09513827 -0.26267803 0.14563827 0.17546636 -0.045428116 0.0664601
-0.0268506 0.016057638 0.012579823 -0.033827677 -0.14926389 -0.05279924 1.2122401 0.21330068
-0.19945936 -0.19655761 -0.06862317 0.33632693 1.8846765 0.18887004 -0.061235707 1.3000804
-0.170162 -0.1336655 -0.6283993 -0.00030198693 0.15763387 1.7593476 1.8854976 0.027175903
0.021251842 0.03237489 1.1679791 -0.09582357 0.099468976 0.19092596 -0.10830641 0.35867408
1.9364839 -0.18580276 0.00053996436 1.2809974 0.14449343 -0.20654127 -0.6068258 -0.202357
0.21513337 1.6343349 2.063158 0.0006044209 -0.21350014 0.19641015 -0.8387855 0.0938961
-0.19559437 0.1879529 -0.09033736 -0.6363696 -1.9042062 0.13778947 0.16685137 -1.0957587
0.11277604 0.17424084 1.9051127 -0.09343925 0.021844173 -2.1093307 -1.9638139 0.032193884
0.14575103 -0.059321374 1.1611376 -0.043289274 -0.08408059 0.14781696 0.21176109 0.31409138
1.4833935 0.17773578 0.16717577 1.5076833 0.16462469 -0.06613897 -0.61686784 -0.091123745
0.05279088 1.9781427 1.8281008 -0.20859848 0.18287238 -0.037174195 0.36285496 0.12909733
-0.17342934 -0.019198406 0.15229252 0.21330993 1.9398354 0.15358144 -0.11739781 0.5779892
0.09123253 0.13255517 -0.36471203 -0.07046068 -0.006037197 1.5857426 1.635768 -0.16439568
-0.037697345 0.12237722 1.2809107 0.06983776 0.08319309 0.021995477 -0.15568055 0.32678515
1.9026287 -0.06367005 -0.07148388 1.3212478 -0.08583735 -0.034749757 -0.60245466 0.1401045
-0.15298757 1.8367267 1.9744742 -0.16182917 -0.20541336 0.050928414 1.2494364 0.068412215
0.14674261 -0.052361652 0.18277153 0.34984738 1.9321965 0.13715318 0.13953528 1.4162544
-0.19402891 0.1565344 -0.626536 0.15164915 -0.19841732 1.8882959 1.8042146 -0.015608609

fc2.bias f4 [10]
00000000: ed1a 3bbc f7de 7a3e 365a 63bd 86ac 76bc
00000010: d020 52bc 4d70 803e 7038 38bc f229 c3bc
00000020: 0d89 acbc da57 59bc
-0.011419994 0.24499117 -0.055505954 -0.015055781 -0.012825206 0.2508568 -0.0112439245 -0.023823712
-0.021061445 -0.013265574

fc3.weight f4 [2, 10]
00000000: 2961 1640 927a 0ac0 6250 adbb b5f1 1940
00000010: b091 2c40 66f7 01c0 cda1 3040 7171 5940
00000020: 1744 1540 09f0 1c40 96c9 07c0 ffc0 f33f
00000030: 3920 353e f06d 16c0 8aa4 0cc0 33f8 0440
00000040: cd5b 10c0 ce2b 53c0 ec27 13c0 9258 13c0
2.3496802 -2.163731 -0.0052891234 2.4053776 2.696392 -2.030725 2.7598755 3.397549
2.3322809 2.4521506 -2.1216788 1.9043273 0.17688073 -2.35046 -2.1975427 2.0776489
-2.255603 -3.2995486 -2.2993116 -2.302281

fc3.bias f4 [2]
00000000: 5f43 e9bf 7b8d b93f
-1.8223685 1.4496301
